…
type: "Nesterov"
I0719 10:34:58.223712 17401 solver.cpp:102] Creating training net from net file: ./train_val.prototxt
I0719 10:34:58.224000 17401 net.cpp:294] The NetState phase (0) differed from the phase (1) specified by a rule in layer data
I0719 10:34:58.224143 17401 net.cpp:51] Initializing net from parameters: 
name: "RegressionExample"
state {
  phase: TRAIN
  level: 0
  stage: ""
}
layer {
  name: "data"
  type: "HDF5Data"
  top: "data"
  top: "freq"
  include {
    phase: TRAIN
  }
  hdf5_data_param {
    source: "train_h5.txt"
    batch_size: 50
  }
}
layer {
  name: "conv1"
  type: "Convolution"
  bottom: "data"
  top: "conv1"
  param {
    lr_mult: 1
    decay_mult: 1
  }
  param {
    lr_mult: 1
    decay_mult: 0
  }
  convolution_param {
    num_output: 96
    kernel_size: 5
    stride: 2
    weight_filler {
      type: "gaussian"
      std: 0.01
    }
    bias_filler {
      type: "constant"
      value: 0
    }
  }
}
layer {
  name: "relu1"
  type: "ReLU"
  bottom: "conv1"
  top: "conv1"
}
layer {
  name: "pool1"
  type: "Pooling"
  bottom: "conv1"
  top: "pool1"
  pooling_param {
    pool: MAX
    kernel_size: 3
    stride: 2
  }
}
layer {
  name: "conv2"
  type: "Convolution"
  bottom: "pool1"
  top: "conv2"
  param {
    lr_mult: 1
    decay_mult: 1
  }
  param {
    lr_mult: 1
    decay_mult: 0
  }
  convolution_param {
    num_output: 96
    pad: 2
    kernel_size: 3
    weight_filler {
      type: "gaussian"
      std: 0.01
    }
    bias_filler {
      type: "constant"
      value: 0
    }
  }
}
layer {
  name: "relu2"
  type: "ReLU"
  bottom: "conv2"
  top: "conv2"
}
layer {
  name: "pool2"
  type: "Pooling"
  bottom: "conv2"
  top: "pool2"
  pooling_param {
    pool: MAX
    kernel_size: 3
    stride: 2
  }
}
layer {
  name: "conv3"
  type: "Convolution"
  bottom: "pool2"
  top: "conv3"
  param {
    lr_mult: 1
    decay_mult: 1
  }
  param {
    lr_mult: 1
    decay_mult: 0
  }
  convolution_param {
    num_output: 128
    pad: 1
    kernel_size: 3
    weight_filler {
      type: "gaussian"
      std: 0.01
    }
    bias_filler {
      type: "constant"
      value: 0
    }
  }
}
layer {
  name: "relu3"
  type: "ReLU"
  bottom: "conv3"
  top: "conv3"
}
layer {
  name: "pool3"
  type: "Pooling"
  bottom: "conv3"
  top: "pool3"
  pooling_param {
    pool: MAX
    kernel_size: 3
    stride: 2
  }
}
layer {
  name: "fc4"
  type: "InnerProduct"
  bottom: "pool3"
  top: "fc4"
  param {
    lr_mult: 1
    decay_mult: 1
  }
  param {
    lr_mult: 1
    decay_mult: 0
  }
  inner_product_param {
    num_output: 192
    weight_filler {
      type: "gaussian"
      std: 0.005
    }
    bias_filler {
      type: "constant"
      value: 0
    }
  }
}
layer {
  name: "relu4"
  type: "ReLU"
  bottom: "fc4"
  top: "fc4"
}
layer {
  name: "drop4"
  type: "Dropout"
  bottom: "fc4"
  top: "fc4"
  dropout_param {
    dropout_ratio: 0.35
  }
}
layer {
  name: "fc5"
  type: "InnerProduct"
  bottom: "fc4"
  top: "fc5"
  param {
    lr_mult: 1
    decay_mult: 1
  }
  param {
    lr_mult: 1
    decay_mult: 0
  }
  inner_product_param {
    num_output: 2
    weight_filler {
      type: "gaussian"
      std: 0.005
    }
    bias_filler {
      type: "constant"
      value: 0
    }
  }
}
layer {
  name: "sigmoid5"
  type: "Sigmoid"
  bottom: "fc5"
  top: "pred"
}
layer {
  name: "loss"
  type: "EuclideanLoss"
  bottom: "pred"
  bottom: "freq"
  top: "loss"
}
I0719 10:34:58.224229 17401 layer_factory.hpp:77] Creating layer data
I0719 10:34:58.224243 17401 net.cpp:84] Creating Layer data
I0719 10:34:58.224251 17401 net.cpp:380] data -> data
I0719 10:34:58.224273 17401 net.cpp:380] data -> freq
I0719 10:34:58.224314 17401 hdf5_data_layer.cpp:80] Loading list of HDF5 filenames from: train_h5.txt
I0719 10:34:58.224349 17401 hdf5_data_layer.cpp:94] Number of HDF5 files: 1
I0719 10:34:58.237133 17401 hdf5.cpp:32] Datatype class: H5T_FLOAT
I0719 10:34:59.918865 17401 net.cpp:122] Setting up data
I0719 10:34:59.918902 17401 net.cpp:129] Top shape: 50 1 100 100 (500000)
I0719 10:34:59.918907 17401 net.cpp:129] Top shape: 50 2 (100)
I0719 10:34:59.918910 17401 net.cpp:137] Memory required for data: 2000400
I0719 10:34:59.918921 17401 layer_factory.hpp:77] Creating layer conv1
I0719 10:34:59.918958 17401 net.cpp:84] Creating Layer conv1
I0719 10:34:59.918965 17401 net.cpp:406] conv1 <- data
I0719 10:34:59.918977 17401 net.cpp:380] conv1 -> conv1
I0719 10:35:00.081765 17401 net.cpp:122] Setting up conv1
I0719 10:35:00.081804 17401 net.cpp:129] Top shape: 50 96 48 48 (11059200)
I0719 10:35:00.081807 17401 net.cpp:137] Memory required for data: 46237200
I0719 10:35:00.081828 17401 layer_factory.hpp:77] Creating layer relu1
I0719 10:35:00.081843 17401 net.cpp:84] Creating Layer relu1
I0719 10:35:00.081847 17401 net.cpp:406] relu1 <- conv1
I0719 10:35:00.081853 17401 net.cpp:367] relu1 -> conv1 (in-place)
I0719 10:35:00.082042 17401 net.cpp:122] Setting up relu1
I0719 10:35:00.082053 17401 net.cpp:129] Top shape: 50 96 48 48 (11059200)
I0719 10:35:00.082056 17401 net.cpp:137] Memory required for data: 90474000
I0719 10:35:00.082067 17401 layer_factory.hpp:77] Creating layer pool1
I0719 10:35:00.082073 17401 net.cpp:84] Creating Layer pool1
I0719 10:35:00.082077 17401 net.cpp:406] pool1 <- conv1
I0719 10:35:00.082082 17401 net.cpp:380] pool1 -> pool1
I0719 10:35:00.082130 17401 net.cpp:122] Setting up pool1
I0719 10:35:00.082139 17401 net.cpp:129] Top shape: 50 96 24 24 (2764800)
I0719 10:35:00.082141 17401 net.cpp:137] Memory required for data: 101533200
I0719 10:35:00.082144 17401 layer_factory.hpp:77] Creating layer conv2
I0719 10:35:00.082156 17401 net.cpp:84] Creating Layer conv2
I0719 10:35:00.082160 17401 net.cpp:406] conv2 <- pool1
I0719 10:35:00.082171 17401 net.cpp:380] conv2 -> conv2
I0719 10:35:00.085073 17401 net.cpp:122] Setting up conv2
I0719 10:35:00.085098 17401 net.cpp:129] Top shape: 50 96 26 26 (3244800)
I0719 10:35:00.085103 17401 net.cpp:137] Memory required for data: 114512400
I0719 10:35:00.085110 17401 layer_factory.hpp:77] Creating layer relu2
I0719 10:35:00.085119 17401 net.cpp:84] Creating Layer relu2
I0719 10:35:00.085121 17401 net.cpp:406] relu2 <- conv2
I0719 10:35:00.085126 17401 net.cpp:367] relu2 -> conv2 (in-place)
I0719 10:35:00.085664 17401 net.cpp:122] Setting up relu2
I0719 10:35:00.085677 17401 net.cpp:129] Top shape: 50 96 26 26 (3244800)
I0719 10:35:00.085691 17401 net.cpp:137] Memory required for data: 127491600
I0719 10:35:00.085695 17401 layer_factory.hpp:77] Creating layer pool2
I0719 10:35:00.085702 17401 net.cpp:84] Creating Layer pool2
I0719 10:35:00.085705 17401 net.cpp:406] pool2 <- conv2
I0719 10:35:00.085713 17401 net.cpp:380] pool2 -> pool2
I0719 10:35:00.085775 17401 net.cpp:122] Setting up pool2
I0719 10:35:00.085784 17401 net.cpp:129] Top shape: 50 96 13 13 (811200)
I0719 10:35:00.085788 17401 net.cpp:137] Memory required for data: 130736400
I0719 10:35:00.085790 17401 layer_factory.hpp:77] Creating layer conv3
I0719 10:35:00.085800 17401 net.cpp:84] Creating Layer conv3
I0719 10:35:00.085803 17401 net.cpp:406] conv3 <- pool2
I0719 10:35:00.085808 17401 net.cpp:380] conv3 -> conv3
I0719 10:35:00.088424 17401 net.cpp:122] Setting up conv3
I0719 10:35:00.088438 17401 net.cpp:129] Top shape: 50 128 13 13 (1081600)
I0719 10:35:00.088452 17401 net.cpp:137] Memory required for data: 135062800
I0719 10:35:00.088464 17401 layer_factory.hpp:77] Creating layer relu3
I0719 10:35:00.088471 17401 net.cpp:84] Creating Layer relu3
I0719 10:35:00.088475 17401 net.cpp:406] relu3 <- conv3
I0719 10:35:00.088479 17401 net.cpp:367] relu3 -> conv3 (in-place)
I0719 10:35:00.088912 17401 net.cpp:122] Setting up relu3
I0719 10:35:00.088922 17401 net.cpp:129] Top shape: 50 128 13 13 (1081600)
I0719 10:35:00.088963 17401 net.cpp:137] Memory required for data: 139389200
I0719 10:35:00.088979 17401 layer_factory.hpp:77] Creating layer pool3
I0719 10:35:00.088999 17401 net.cpp:84] Creating Layer pool3
I0719 10:35:00.089001 17401 net.cpp:406] pool3 <- conv3
I0719 10:35:00.089006 17401 net.cpp:380] pool3 -> pool3
I0719 10:35:00.089052 17401 net.cpp:122] Setting up pool3
I0719 10:35:00.089059 17401 net.cpp:129] Top shape: 50 128 6 6 (230400)
I0719 10:35:00.089062 17401 net.cpp:137] Memory required for data: 140310800
I0719 10:35:00.089067 17401 layer_factory.hpp:77] Creating layer fc4
I0719 10:35:00.089077 17401 net.cpp:84] Creating Layer fc4
I0719 10:35:00.089082 17401 net.cpp:406] fc4 <- pool3
I0719 10:35:00.089088 17401 net.cpp:380] fc4 -> fc4
I0719 10:35:00.098842 17401 net.cpp:122] Setting up fc4
I0719 10:35:00.098855 17401 net.cpp:129] Top shape: 50 192 (9600)
I0719 10:35:00.098870 17401 net.cpp:137] Memory required for data: 140349200
I0719 10:35:00.098875 17401 layer_factory.hpp:77] Creating layer relu4
I0719 10:35:00.098881 17401 net.cpp:84] Creating Layer relu4
I0719 10:35:00.098884 17401 net.cpp:406] relu4 <- fc4
I0719 10:35:00.098893 17401 net.cpp:367] relu4 -> fc4 (in-place)
I0719 10:35:00.099083 17401 net.cpp:122] Setting up relu4
I0719 10:35:00.099093 17401 net.cpp:129] Top shape: 50 192 (9600)
I0719 10:35:00.099097 17401 net.cpp:137] Memory required for data: 140387600
I0719 10:35:00.099099 17401 layer_factory.hpp:77] Creating layer drop4
I0719 10:35:00.099105 17401 net.cpp:84] Creating Layer drop4
I0719 10:35:00.099108 17401 net.cpp:406] drop4 <- fc4
I0719 10:35:00.099114 17401 net.cpp:367] drop4 -> fc4 (in-place)
I0719 10:35:00.099141 17401 net.cpp:122] Setting up drop4
I0719 10:35:00.099148 17401 net.cpp:129] Top shape: 50 192 (9600)
I0719 10:35:00.099150 17401 net.cpp:137] Memory required for data: 140426000
I0719 10:35:00.099153 17401 layer_factory.hpp:77] Creating layer fc5
I0719 10:35:00.099165 17401 net.cpp:84] Creating Layer fc5
I0719 10:35:00.099169 17401 net.cpp:406] fc5 <- fc4
I0719 10:35:00.099175 17401 net.cpp:380] fc5 -> fc5
I0719 10:35:00.099278 17401 net.cpp:122] Setting up fc5
I0719 10:35:00.099285 17401 net.cpp:129] Top shape: 50 2 (100)
I0719 10:35:00.099288 17401 net.cpp:137] Memory required for data: 140426400
I0719 10:35:00.099295 17401 layer_factory.hpp:77] Creating layer sigmoid5
I0719 10:35:00.099303 17401 net.cpp:84] Creating Layer sigmoid5
I0719 10:35:00.099305 17401 net.cpp:406] sigmoid5 <- fc5
I0719 10:35:00.099313 17401 net.cpp:380] sigmoid5 -> pred
I0719 10:35:00.099794 17401 net.cpp:122] Setting up sigmoid5
I0719 10:35:00.099817 17401 net.cpp:129] Top shape: 50 2 (100)
I0719 10:35:00.099822 17401 net.cpp:137] Memory required for data: 140426800
I0719 10:35:00.099824 17401 layer_factory.hpp:77] Creating layer loss
I0719 10:35:00.099844 17401 net.cpp:84] Creating Layer loss
I0719 10:35:00.099848 17401 net.cpp:406] loss <- pred
I0719 10:35:00.099853 17401 net.cpp:406] loss <- freq
I0719 10:35:00.099859 17401 net.cpp:380] loss -> loss
I0719 10:35:00.099908 17401 net.cpp:122] Setting up loss
…
