…
I0725 19:03:23.062681 20919 upgrade_proto.cpp:55] Attempting to upgrade input file specified using deprecated V1LayerParameter: config/googlenet_regression/train.prototxt
I0725 19:03:23.062952 20919 upgrade_proto.cpp:63] Successfully upgraded file specified using deprecated V1LayerParameter
I0725 19:03:23.063635 20919 net.cpp:51] Initializing net from parameters: 
name: "GoogleNet"
state {
  phase: TRAIN
  level: 0
  stage: ""
}
layer {
  name: "data"
  type: "HDF5Data"
  top: "data"
  top: "labels"
  include {
    phase: TRAIN
  }
  hdf5_data_param {
    source: "dataset/HDF5/train_h5.txt"
    batch_size: 32
  }
}
layer {
  name: "conv1/7x7_s2"
  type: "Convolution"
  bottom: "data"
  top: "conv1/7x7_s2"
  param {
    lr_mult: 1
    decay_mult: 1
  }
  param {
    lr_mult: 2
    decay_mult: 0
  }
  convolution_param {
    num_output: 64
    pad: 3
    kernel_size: 7
    stride: 2
    weight_filler {
      type: "xavier"
    }
    bias_filler {
      type: "constant"
      value: 0.2
    }
  }
}
layer {
  name: "conv1/relu_7x7"
  type: "ReLU"
  bottom: "conv1/7x7_s2"
  top: "conv1/7x7_s2"
}
layer {
  name: "pool1/3x3_s2"
  type: "Pooling"
  bottom: "conv1/7x7_s2"
  top: "pool1/3x3_s2"
  pooling_param {
    pool: MAX
    kernel_size: 3
    stride: 2
  }
}
layer {
  name: "pool1/norm1"
  type: "LRN"
  bottom: "pool1/3x3_s2"
  top: "pool1/norm1"
  lrn_param {
    local_size: 5
    alpha: 0.0001
    beta: 0.75
  }
}
layer {
  name: "conv2/3x3_reduce"
  type: "Convolution"
  bottom: "pool1/norm1"
  top: "conv2/3x3_reduce"
  param {
    lr_mult: 1
    decay_mult: 1
  }
  param {
    lr_mult: 2
    decay_mult: 0
  }
  convolution_param {
    num_output: 64
    kernel_size: 1
    weight_filler {
      type: "xavier"
    }
    bias_filler {
      type: "constant"
      value: 0.2
    }
  }
}
layer {
  name: "conv2/relu_3x3_reduce"
  type: "ReLU"
  bottom: "conv2/3x3_reduce"
  top: "conv2/3x3_reduce"
}
layer {
  name: "conv2/3x3"
  type: "Convolution"
  bottom: "conv2/3x3_reduce"
  top: "conv2/3x3"
  param {
    lr_mult: 1
    decay_mult: 1
  }
  param {
    lr_mult: 2
    decay_mult: 0
  }
  convolution_param {
    num_output: 192
    pad: 1
    kernel_size: 3
    weight_filler {
      type: "xavier"
    }
    bias_filler {
      type: "constant"
      value: 0.2
    }
  }
}
layer {
  name: "conv2/relu_3x3"
  type: "ReLU"
  bottom: "conv2/3x3"
  top: "conv2/3x3"
}
layer {
  name: "conv2/norm2"
  type: "LRN"
  bottom: "conv2/3x3"
  top: "conv2/norm2"
  lrn_param {
    local_size: 5
    alpha: 0.0001
    beta: 0.75
  }
}
layer {
  name: "pool2/3x3_s2"
  type: "Pooling"
  bottom: "conv2/norm2"
  top: "pool2/3x3_s2"
  pooling_param {
    pool: MAX
    kernel_size: 3
    stride: 2
  }
}
layer {
  name: "inception_3a/1x1"
  type: "Convolution"
  bottom: "pool2/3x3_s2"
  top: "inception_3a/1x1"
  param {
    lr_mult: 1
    decay_mult: 1
  }
  param {
    lr_mult: 2
    decay_mult: 0
  }
  convolution_param {
    num_output: 64
    kernel_size: 1
    weight_filler {
      type: "xavier"
    }
    bias_filler {
      type: "constant"
      value: 0.2
    }
  }
}
layer {
  name: "inception_3a/relu_1x1"
  type: "ReLU"
  bottom: "inception_3a/1x1"
  top: "inception_3a/1x1"
}
layer {
  name: "inception_3a/3x3_reduce"
  type: "Convolution"
  bottom: "pool2/3x3_s2"
  top: "inception_3a/3x3_reduce"
  param {
    lr_mult: 1
    decay_mult: 1
  }
  param {
    lr_mult: 2
    decay_mult: 0
  }
  convolution_param {
    num_output: 96
    kernel_size: 1
    weight_filler {
      type: "xavier"
    }
    bias_filler {
      type: "constant"
      value: 0.2
    }
  }
}
layer {
  name: "inception_3a/relu_3x3_reduce"
  type: "ReLU"
  bottom: "inception_3a/3x3_reduce"
  top: "inception_3a/3x3_reduce"
}
layer {
  name: "inception_3a/3x3"
  type: "Convolution"
  bottom: "inception_3a/3x3_reduce"
  top: "inception_3a/3x3"
  param {
    lr_mult: 1
    decay_mult: 1
  }
  param {
    lr_mult: 2
    decay_mult: 0
  }
  convolution_param {
    num_output: 128
    pad: 1
    kernel_size: 3
    weight_filler {
      type: "xavier"
    }
    bias_filler {
      type: "constant"
      value: 0.2
    }
  }
}
layer {
  name: "inception_3a/relu_3x3"
  type: "ReLU"
  bottom: "inception_3a/3x3"
  top: "inception_3a/3x3"
}
layer {
  name: "inception_3a/5x5_reduce"
  type: "Convolution"
  bottom: "pool2/3x3_s2"
  top: "inception_3a/5x5_reduce"
  param {
    lr_mult: 1
    decay_mult: 1
  }
  param {
    lr_mult: 2
    decay_mult: 0
  }
  convolution_param {
    num_output: 16
    kernel_size: 1
    weight_filler {
      type: "xavier"
    }
    bias_filler {
      type: "constant"
      value: 0.2
    }
  }
}
layer {
  name: "inception_3a/relu_5x5_reduce"
  type: "ReLU"
  bottom: "inception_3a/5x5_reduce"
  top: "inception_3a/5x5_reduce"
}
layer {
  name: "inception_3a/5x5"
  type: "Convolution"
  bottom: "inception_3a/5x5_reduce"
  top: "inception_3a/5x5"
  param {
    lr_mult: 1
    decay_mult: 1
  }
  param {
    lr_mult: 2
    decay_mult: 0
  }
  convolution_param {
    num_output: 32
    pad: 2
    kernel_size: 5
    weight_filler {
      type: "xavier"
    }
    bias_filler {
      type: "constant"
      value: 0.2
    }
  }
}
layer {
  name: "inception_3a/relu_5x5"
  type: "ReLU"
  bottom: "inception_3a/5x5"
  top: "inception_3a/5x5"
}
layer {
  name: "inception_3a/pool"
  type: "Pooling"
  bottom: "pool2/3x3_s2"
  top: "inception_3a/pool"
  pooling_param {
    pool: AVE
    kernel_size: 3
    stride: 1
    pad: 1
  }
}
layer {
  name: "inception_3a/pool_proj"
  type: "Convolution"
  bottom: "inception_3a/pool"
  top: "inception_3a/pool_proj"
  param {
    lr_mult: 1
    decay_mult: 1
  }
  param {
    lr_mult: 2
    decay_mult: 0
  }
  convolution_param {
    num_output: 32
    kernel_size: 1
    weight_filler {
      type: "xavier"
    }
    bias_filler {
      type: "constant"
      value: 0.2
    }
  }
}
layer {
  name: "inception_3a/relu_pool_proj"
  type: "ReLU"
  bottom: "inception_3a/pool_proj"
  top: "inception_3a/pool_proj"
}
layer {
  name: "inception_3a/output"
  type: "Concat"
  bottom: "inception_3a/1x1"
  bottom: "inception_3a/3x3"
  bottom: "inception_3a/5x5"
  bottom: "inception_3a/pool_proj"
  top: "inception_3a/output"
}
layer {
  name: "temp1"
  type: "InnerProduct"
  bottom: "inception_3a/output"
  top: "temp1"
  param {
    lr_mult: 10
    decay_mult: 1
  }
  param {
    lr_mult: 20
    decay_mult: 0
  }
  inner_product_param {
    num_output: 256
    weight_filler {
      type: "xavier"
    }
    bias_filler {
      type: "constant"
      value: 0.2
    }
  }
}
layer {
  name: "temp1_relu"
  type: "ReLU"
  bottom: "temp1"
  top: "temp1"
}
layer {
  name: "temp1_drop"
  type: "Dropout"
  bottom: "temp1"
  top: "temp1"
  dropout_param {
    dropout_ratio: 0.7
  }
}
layer {
  name: "inception_3b/1x1"
  type: "Convolution"
  bottom: "inception_3a/output"
  top: "inception_3b/1x1"
  param {
    lr_mult: 1
    decay_mult: 1
  }
  param {
    lr_mult: 2
    decay_mult: 0
  }
  convolution_param {
    num_output: 128
    kernel_size: 1
    weight_filler {
      type: "xavier"
    }
    bias_filler {
      type: "constant"
      value: 0.2
    }
  }
}
layer {
  name: "inception_3b/relu_1x1"
  type: "ReLU"
  bottom: "inception_3b/1x1"
  top: "inception_3b/1x1"
}
layer {
  name: "inception_3b/3x3_reduce"
  type: "Convolution"
  bottom: "inception_3a/output"
  top: "inception_3b/3x3_reduce"
  param {
    lr_mult: 1
    decay_mult: 1
  }
  param {
    lr_mult: 2
    decay_mult: 0
  }
  convolution_param {
    num_output: 128
    kernel_size: 1
    weight_filler {
      type: "xavier"
    }
    bias_filler {
      type: "constant"
      value: 0.2
    }
  }
}
layer {
  name: "inception_3b/relu_3x3_reduce"
  type: "ReLU"
  bottom: "inception_3b/3x3_reduce"
  top: "inception_3b/3x3_reduce"
}
layer {
  name: "inception_3b/3x3"
  type: "Convolution"
  bottom: "inception_3b/3x3_reduce"
  top: "inception_3b/3x3"
  param {
    lr_mult: 1
    decay_mult: 1
  }
  param {
    lr_mult: 2
    decay_mult: 0
  }
  convolution_param {
    num_output: 192
    pad: 1
    kernel_size: 3
    weight_filler {
      type: "xavier"
    }
    bias_filler {
      type: "constant"
      value: 0.2
    }
  }
}
layer {
  name: "inception_3b/relu_3x3"
  type: "ReLU"
  bottom: "inception_3b/3x3"
  top: "inception_3b/3x3"
}
layer {
  name: "inception_3b/5x5_reduce"
  type: "Convolution"
  bottom: "inception_3a/output"
  top: "inception_3b/5x5_reduce"
  param {
    lr_mult: 1
    decay_mult: 1
  }
  param {
    lr_mult: 2
    decay_mult: 0
  }
  convolution_param {
    num_output: 32
    kernel_size: 1
    weight_filler {
      type: "xavier"
    }
    bias_filler {
      type: "constant"
      value: 0.2
    }
  }
}
layer {
  name: "inception_3b/relu_5x5_reduce"
  type: "ReLU"
  bottom: "inception_3b/5x5_reduce"
  top: "inception_3b/5x5_reduce"
}
layer {
  name: "inception_3b/5x5"
  type: "Convolution"
  bottom: "inception_3b/5x5_reduce"
  top: "inception_3b/5x5"
  param {
    lr_mult: 1
    decay_mult: 1
  }
  param {
    lr_mult: 2
    decay_mult: 0
  }
  convolution_param {
    num_output: 96
    pad: 2
    kernel_size: 5
    weight_filler {
      type: "xavier"
    }
    bias_filler {
      type: "constant"
      value: 0.2
    }
  }
}
layer {
  name: "inception_3b/relu_5x5"
  type: "ReLU"
  bottom: "inception_3b/5x5"
  top: "inception_3b/5x5"
}
layer {
  name: "inception_3b/pool"
  type: "Pooling"
  bottom: "inception_3a/output"
  top: "inception_3b/pool"
  pooling_param {
    pool: AVE
    kernel_size: 3
    stride: 1
    pad: 1
  }
}
layer {
  name: "inception_3b/pool_proj"
  type: "Convolution"
  bottom: "inception_3b/pool"
  top: "inception_3b/pool_proj"
  param {
    lr_mult: 1
    decay_mult: 1
  }
  param {
    lr_mult: 2
    decay_mult: 0
  }
  convolution_param {
    num_output: 64
    kernel_size: 1
    weight_filler {
      type: "xavier"
    }
    bias_filler {
      type: "constant"
      value: 0.2
    }
  }
}
layer {
  name: "inception_3b/relu_pool_proj"
  type: "ReLU"
  bottom: "inception_3b/pool_proj"
  top: "inception_3b/pool_proj"
}
layer {
  name: "inception_3b/output"
  type: "Concat"
  bottom: "inception_3b/1x1"
  bottom: "inception_3b/3x3"
  bottom: "inception_3b/5x5"
  bottom: "inception_3b/pool_proj"
  top: "inception_3b/output"
}
layer {
  name: "temp2"
  type: "InnerProduct"
  bottom: "inception_3b/output"
  top: "temp2"
  param {
    lr_mult: 10
    decay_mult: 1
  }
  param {
    lr_mult: 20
    decay_mult: 0
  }
  inner_product_param {
    num_output: 256
    weight_filler {
      type: "xavier"
    }
    bias_filler {
      type: "constant"
      value: 0.2
    }
  }
}
layer {
  name: "temp2_relu"
  type: "ReLU"
  bottom: "temp2"
  top: "temp2"
}
layer {
  name: "temp2_drop"
  type: "Dropout"
  bottom: "temp2"
  top: "temp2"
  dropout_param {
    dropout_ratio: 0.7
  }
}
layer {
  name: "pool3/3x3_s2"
  type: "Pooling"
  bottom: "inception_3b/output"
  top: "pool3/3x3_s2"
  pooling_param {
    pool: MAX
    kernel_size: 3
    stride: 2
  }
}
layer {
  name: "inception_4a/1x1"
  type: "Convolution"
  bottom: "pool3/3x3_s2"
  top: "inception_4a/1x1"
  param {
    lr_mult: 1
    decay_mult: 1
  }
  param {
    lr_mult: 2
    decay_mult: 0
  }
  convolution_param {
    num_output: 192
    kernel_size: 1
    weight_filler {
      type: "xavier"
    }
    bias_filler {
      type: "constant"
      value: 0.2
    }
  }
}
layer {
  name: "inception_4a/relu_1x1"
  type: "ReLU"
  bottom: "inception_4a/1x1"
  top: "inception_4a/1x1"
}
layer {
  name: "inception_4a/3x3_reduce"
  type: "Convolution"
  bottom: "pool3/3x3_s2"
  top: "inception_4a/3x3_reduce"
  param {
    lr_mult: 1
    decay_mult: 1
  }
  param {
    lr_mult: 2
    decay_mult: 0
  }
  convolution_param {
    num_output: 96
    kernel_size: 1
    weight_filler {
      type: "xavier"
    }
    bias_filler {
      type: "constant"
      value: 0.2
    }
  }
}
layer {
  name: "inception_4a/relu_3x3_reduce"
  type: "ReLU"
  bottom: "inception_4a/3x3_reduce"
  top: "inception_4a/3x3_reduce"
}
layer {
  name: "inception_4a/3x3"
  type: "Convolution"
  bottom: "inception_4a/3x3_reduce"
  top: "inception_4a/3x3"
  param {
    lr_mult: 1
    decay_mult: 1
  }
  param {
    lr_mult: 2
    decay_mult: 0
  }
  convolution_param {
    num_output: 208
    pad: 1
    kernel_size: 3
    weight_filler {
      type: "xavier"
    }
    bias_filler {
      type: "constant"
      value: 0.2
    }
  }
}
layer {
  name: "inception_4a/relu_3x3"
  type: "ReLU"
  bottom: "inception_4a/3x3"
  top: "inception_4a/3x3"
}
layer {
  name: "inception_4a/5x5_reduce"
  type: "Convolution"
  bottom: "pool3/3x3_s2"
  top: "inception_4a/5x5_reduce"
  param {
    lr_mult: 1
    decay_mult: 1
  }
  param {
    lr_mult: 2
    decay_mult: 0
  }
  convolution_param {
    num_output: 16
    kernel_size: 1
    weight_filler {
      type: "xavier"
    }
    bias_filler {
      type: "constant"
      value: 0.2
    }
  }
}
layer {
  name: "inception_4a/relu_5x5_reduce"
  type: "ReLU"
  bottom: "inception_4a/5x5_reduce"
  top: "inception_4a/5x5_reduce"
}
layer {
  name: "inception_4a/5x5"
  type: "Convolution"
  bottom: "inception_4a/5x5_reduce"
  top: "inception_4a/5x5"
  param {
    lr_mult: 1
    decay_mult: 1
  }
  param {
    lr_mult: 2
    decay_mult: 0
  }
  convolution_param {
    num_output: 48
    pad: 2
    kernel_size: 5
    weight_filler {
      type: "xavier"
    }
    bias_filler {
      type: "constant"
      value: 0.2
    }
  }
}
layer {
  name: "inception_4a/relu_5x5"
  type: "ReLU"
  bottom: "inception_4a/5x5"
  top: "inception_4a/5x5"
}
layer {
  name: "inception_4a/pool"
  type: "Pooling"
  bottom: "pool3/3x3_s2"
  top: "inception_4a/pool"
  pooling_param {
    pool: AVE
    kernel_size: 3
    stride: 1
    pad: 1
  }
}
layer {
  name: "inception_4a/pool_proj"
  type: "Convolution"
  bottom: "inception_4a/pool"
  top: "inception_4a/pool_proj"
  param {
    lr_mult: 1
    decay_mult: 1
  }
  param {
    lr_mult: 2
    decay_mult: 0
  }
  convolution_param {
    num_output: 64
    kernel_size: 1
    weight_filler {
      type: "xavier"
    }
    bias_filler {
      type: "constant"
      value: 0.2
    }
  }
}
layer {
  name: "inception_4a/relu_pool_proj"
  type: "ReLU"
  bottom: "inception_4a/pool_proj"
  top: "inception_4a/pool_proj"
}
layer {
  name: "inception_4a/output"
  type: "Concat"
  bottom: "inception_4a/1x1"
  bottom: "inception_4a/3x3"
  bottom: "inception_4a/5x5"
  bottom: "inception_4a/pool_proj"
  top: "inception_4a/output"
}
layer {
  name: "loss1/ave_pool"
  type: "Pooling"
  bottom: "inception_4a/output"
  top: "loss1/ave_pool"
  pooling_param {
    pool: AVE
    kernel_size: 5
    stride: 3
  }
}
layer {
  name: "loss1/conv"
  type: "Convolution"
  bottom: "loss1/ave_pool"
  top: "loss1/conv"
  param {
    lr_mult: 1
    decay_mult: 1
  }
  param {
    lr_mult: 2
    decay_mult: 0
  }
  convolution_param {
    num_output: 128
    kernel_size: 1
    weight_filler {
      type: "xavier"
    }
    bias_filler {
      type: "constant"
      value: 0.2
    }
  }
}
layer {
  name: "loss1/relu_conv"
  type: "ReLU"
  bottom: "loss1/conv"
  top: "loss1/conv"
}
layer {
  name: "temp3"
  type: "InnerProduct"
  bottom: "loss1/conv"
  top: "temp3"
  param {
    lr_mult: 10
    decay_mult: 1
  }
  param {
    lr_mult: 20
    decay_mult: 0
  }
  inner_product_param {
    num_output: 512
    weight_filler {
      type: "xavier"
    }
    bias_filler {
      type: "constant"
      value: 0.2
    }
  }
}
layer {
  name: "temp3_relu"
  type: "ReLU"
  bottom: "temp3"
  top: "temp3"
}
layer {
  name: "temp3_drop"
  type: "Dropout"
  bottom: "temp3"
  top: "temp3"
  dropout_param {
    dropout_ratio: 0.7
  }
}
layer {
  name: "temp"
  type: "Concat"
  bottom: "temp1"
  bottom: "temp2"
  bottom: "temp3"
  top: "temp"
}
layer {
  name: "temp_cjy"
  type: "InnerProduct"
  bottom: "temp"
  top: "temp_cjy"
  param {
    lr_mult: 10
    decay_mult: 1
  }
  param {
    lr_mult: 20
    decay_mult: 0
  }
  inner_product_param {
    num_output: 1024
    weight_filler {
      type: "xavier"
    }
    bias_filler {
      type: "constant"
      value: 0.2
    }
  }
}
layer {
  name: "temp_cjy_relu"
  type: "ReLU"
  bottom: "temp_cjy"
  top: "temp_cjy"
}
layer {
  name: "temp3_cjy_drop"
  type: "Dropout"
  bottom: "temp_cjy"
  top: "temp_cjy"
  dropout_param {
    dropout_ratio: 0.7
  }
}
layer {
  name: "loss1/classifier_cjy"
  type: "InnerProduct"
  bottom: "temp_cjy"
  top: "loss1/classifier_cjy"
  param {
    lr_mult: 10
    decay_mult: 1
  }
  param {
    lr_mult: 20
    decay_mult: 0
  }
  inner_product_param {
    num_output: 1
    weight_filler {
      type: "xavier"
    }
    bias_filler {
      type: "constant"
      value: 0
    }
  }
}
layer {
  name: "sigmoid5"
  type: "Sigmoid"
  bottom: "loss1/classifier_cjy"
  top: "pred"
}
layer {
  name: "loss"
  type: "EuclideanLoss"
  bottom: "pred"
  bottom: "labels"
  top: "loss"
}
I0725 19:03:23.064015 20919 layer_factory.hpp:77] Creating layer data
I0725 19:03:23.064034 20919 net.cpp:84] Creating Layer data
I0725 19:03:23.064041 20919 net.cpp:380] data -> data
I0725 19:03:23.064065 20919 net.cpp:380] data -> labels
I0725 19:03:23.064076 20919 hdf5_data_layer.cpp:80] Loading list of HDF5 filenames from: dataset/HDF5/train_h5.txt
I0725 19:03:23.064116 20919 hdf5_data_layer.cpp:94] Number of HDF5 files: 7
I0725 19:03:23.065367 20919 hdf5.cpp:32] Datatype class: H5T_FLOAT
I0725 19:03:27.195377 20919 net.cpp:122] Setting up data
I0725 19:03:27.195426 20919 net.cpp:129] Top shape: 32 3 227 227 (4946784)
I0725 19:03:27.195431 20919 net.cpp:129] Top shape: 32 1 (32)
I0725 19:03:27.195435 20919 net.cpp:137] Memory required for data: 19787264
I0725 19:03:27.195448 20919 layer_factory.hpp:77] Creating layer conv1/7x7_s2
I0725 19:03:27.195502 20919 net.cpp:84] Creating Layer conv1/7x7_s2
I0725 19:03:27.195508 20919 net.cpp:406] conv1/7x7_s2 <- data
I0725 19:03:27.195524 20919 net.cpp:380] conv1/7x7_s2 -> conv1/7x7_s2
I0725 19:03:27.363310 20919 net.cpp:122] Setting up conv1/7x7_s2
I0725 19:03:27.363344 20919 net.cpp:129] Top shape: 32 64 114 114 (26615808)
I0725 19:03:27.363348 20919 net.cpp:137] Memory required for data: 126250496
I0725 19:03:27.363379 20919 layer_factory.hpp:77] Creating layer conv1/relu_7x7
I0725 19:03:27.363420 20919 net.cpp:84] Creating Layer conv1/relu_7x7
I0725 19:03:27.363425 20919 net.cpp:406] conv1/relu_7x7 <- conv1/7x7_s2
I0725 19:03:27.363431 20919 net.cpp:367] conv1/relu_7x7 -> conv1/7x7_s2 (in-place)
I0725 19:03:27.363595 20919 net.cpp:122] Setting up conv1/relu_7x7
I0725 19:03:27.363606 20919 net.cpp:129] Top shape: 32 64 114 114 (26615808)
I0725 19:03:27.363610 20919 net.cpp:137] Memory required for data: 232713728
I0725 19:03:27.363615 20919 layer_factory.hpp:77] Creating layer pool1/3x3_s2
I0725 19:03:27.363621 20919 net.cpp:84] Creating Layer pool1/3x3_s2
I0725 19:03:27.363625 20919 net.cpp:406] pool1/3x3_s2 <- conv1/7x7_s2
I0725 19:03:27.363631 20919 net.cpp:380] pool1/3x3_s2 -> pool1/3x3_s2
I0725 19:03:27.363682 20919 net.cpp:122] Setting up pool1/3x3_s2
I0725 19:03:27.363689 20919 net.cpp:129] Top shape: 32 64 57 57 (6653952)
I0725 19:03:27.363692 20919 net.cpp:137] Memory required for data: 259329536
I0725 19:03:27.363695 20919 layer_factory.hpp:77] Creating layer pool1/norm1
I0725 19:03:27.363704 20919 net.cpp:84] Creating Layer pool1/norm1
I0725 19:03:27.363708 20919 net.cpp:406] pool1/norm1 <- pool1/3x3_s2
I0725 19:03:27.363713 20919 net.cpp:380] pool1/norm1 -> pool1/norm1
I0725 19:03:27.364120 20919 net.cpp:122] Setting up pool1/norm1
I0725 19:03:27.364131 20919 net.cpp:129] Top shape: 32 64 57 57 (6653952)
I0725 19:03:27.364135 20919 net.cpp:137] Memory required for data: 285945344
I0725 19:03:27.364138 20919 layer_factory.hpp:77] Creating layer conv2/3x3_reduce
I0725 19:03:27.364164 20919 net.cpp:84] Creating Layer conv2/3x3_reduce
I0725 19:03:27.364168 20919 net.cpp:406] conv2/3x3_reduce <- pool1/norm1
I0725 19:03:27.364186 20919 net.cpp:380] conv2/3x3_reduce -> conv2/3x3_reduce
I0725 19:03:27.366081 20919 net.cpp:122] Setting up conv2/3x3_reduce
I0725 19:03:27.366107 20919 net.cpp:129] Top shape: 32 64 57 57 (6653952)
I0725 19:03:27.366111 20919 net.cpp:137] Memory required for data: 312561152
I0725 19:03:27.366119 20919 layer_factory.hpp:77] Creating layer conv2/relu_3x3_reduce
I0725 19:03:27.366127 20919 net.cpp:84] Creating Layer conv2/relu_3x3_reduce
I0725 19:03:27.366130 20919 net.cpp:406] conv2/relu_3x3_reduce <- conv2/3x3_reduce
I0725 19:03:27.366138 20919 net.cpp:367] conv2/relu_3x3_reduce -> conv2/3x3_reduce (in-place)
I0725 19:03:27.366323 20919 net.cpp:122] Setting up conv2/relu_3x3_reduce
I0725 19:03:27.366335 20919 net.cpp:129] Top shape: 32 64 57 57 (6653952)
I0725 19:03:27.366338 20919 net.cpp:137] Memory required for data: 339176960
I0725 19:03:27.366343 20919 layer_factory.hpp:77] Creating layer conv2/3x3
I0725 19:03:27.366353 20919 net.cpp:84] Creating Layer conv2/3x3
I0725 19:03:27.366356 20919 net.cpp:406] conv2/3x3 <- conv2/3x3_reduce
I0725 19:03:27.366363 20919 net.cpp:380] conv2/3x3 -> conv2/3x3
I0725 19:03:27.368917 20919 net.cpp:122] Setting up conv2/3x3
I0725 19:03:27.368930 20919 net.cpp:129] Top shape: 32 192 57 57 (19961856)
I0725 19:03:27.368933 20919 net.cpp:137] Memory required for data: 419024384
I0725 19:03:27.368944 20919 layer_factory.hpp:77] Creating layer conv2/relu_3x3
I0725 19:03:27.368952 20919 net.cpp:84] Creating Layer conv2/relu_3x3
I0725 19:03:27.368954 20919 net.cpp:406] conv2/relu_3x3 <- conv2/3x3
I0725 19:03:27.368959 20919 net.cpp:367] conv2/relu_3x3 -> conv2/3x3 (in-place)
I0725 19:03:27.369149 20919 net.cpp:122] Setting up conv2/relu_3x3
I0725 19:03:27.369159 20919 net.cpp:129] Top shape: 32 192 57 57 (19961856)
I0725 19:03:27.369163 20919 net.cpp:137] Memory required for data: 498871808
I0725 19:03:27.369165 20919 layer_factory.hpp:77] Creating layer conv2/norm2
I0725 19:03:27.369174 20919 net.cpp:84] Creating Layer conv2/norm2
I0725 19:03:27.369176 20919 net.cpp:406] conv2/norm2 <- conv2/3x3
I0725 19:03:27.369182 20919 net.cpp:380] conv2/norm2 -> conv2/norm2
I0725 19:03:27.369611 20919 net.cpp:122] Setting up conv2/norm2
I0725 19:03:27.369621 20919 net.cpp:129] Top shape: 32 192 57 57 (19961856)
I0725 19:03:27.369637 20919 net.cpp:137] Memory required for data: 578719232
I0725 19:03:27.369640 20919 layer_factory.hpp:77] Creating layer pool2/3x3_s2
I0725 19:03:27.369648 20919 net.cpp:84] Creating Layer pool2/3x3_s2
I0725 19:03:27.369652 20919 net.cpp:406] pool2/3x3_s2 <- conv2/norm2
I0725 19:03:27.369657 20919 net.cpp:380] pool2/3x3_s2 -> pool2/3x3_s2
I0725 19:03:27.369695 20919 net.cpp:122] Setting up pool2/3x3_s2
I0725 19:03:27.369702 20919 net.cpp:129] Top shape: 32 192 28 28 (4816896)
I0725 19:03:27.369705 20919 net.cpp:137] Memory required for data: 597986816
I0725 19:03:27.369709 20919 layer_factory.hpp:77] Creating layer pool2/3x3_s2_pool2/3x3_s2_0_split
I0725 19:03:27.369724 20919 net.cpp:84] Creating Layer pool2/3x3_s2_pool2/3x3_s2_0_split
I0725 19:03:27.369729 20919 net.cpp:406] pool2/3x3_s2_pool2/3x3_s2_0_split <- pool2/3x3_s2
I0725 19:03:27.369735 20919 net.cpp:380] pool2/3x3_s2_pool2/3x3_s2_0_split -> pool2/3x3_s2_pool2/3x3_s2_0_split_0
I0725 19:03:27.369742 20919 net.cpp:380] pool2/3x3_s2_pool2/3x3_s2_0_split -> pool2/3x3_s2_pool2/3x3_s2_0_split_1
I0725 19:03:27.369747 20919 net.cpp:380] pool2/3x3_s2_pool2/3x3_s2_0_split -> pool2/3x3_s2_pool2/3x3_s2_0_split_2
I0725 19:03:27.369752 20919 net.cpp:380] pool2/3x3_s2_pool2/3x3_s2_0_split -> pool2/3x3_s2_pool2/3x3_s2_0_split_3
I0725 19:03:27.369807 20919 net.cpp:122] Setting up pool2/3x3_s2_pool2/3x3_s2_0_split
I0725 19:03:27.369812 20919 net.cpp:129] Top shape: 32 192 28 28 (4816896)
I0725 19:03:27.369817 20919 net.cpp:129] Top shape: 32 192 28 28 (4816896)
I0725 19:03:27.369820 20919 net.cpp:129] Top shape: 32 192 28 28 (4816896)
I0725 19:03:27.369834 20919 net.cpp:129] Top shape: 32 192 28 28 (4816896)
I0725 19:03:27.369837 20919 net.cpp:137] Memory required for data: 675057152
I0725 19:03:27.369841 20919 layer_factory.hpp:77] Creating layer inception_3a/1x1
I0725 19:03:27.369854 20919 net.cpp:84] Creating Layer inception_3a/1x1
I0725 19:03:27.369858 20919 net.cpp:406] inception_3a/1x1 <- pool2/3x3_s2_pool2/3x3_s2_0_split_0
I0725 19:03:27.369863 20919 net.cpp:380] inception_3a/1x1 -> inception_3a/1x1
I0725 19:03:27.371742 20919 net.cpp:122] Setting up inception_3a/1x1
I0725 19:03:27.371767 20919 net.cpp:129] Top shape: 32 64 28 28 (1605632)
I0725 19:03:27.371770 20919 net.cpp:137] Memory required for data: 681479680
I0725 19:03:27.371776 20919 layer_factory.hpp:77] Creating layer inception_3a/relu_1x1
I0725 19:03:27.371784 20919 net.cpp:84] Creating Layer inception_3a/relu_1x1
I0725 19:03:27.371788 20919 net.cpp:406] inception_3a/relu_1x1 <- inception_3a/1x1
I0725 19:03:27.371795 20919 net.cpp:367] inception_3a/relu_1x1 -> inception_3a/1x1 (in-place)
I0725 19:03:27.371973 20919 net.cpp:122] Setting up inception_3a/relu_1x1
I0725 19:03:27.371981 20919 net.cpp:129] Top shape: 32 64 28 28 (1605632)
I0725 19:03:27.371984 20919 net.cpp:137] Memory required for data: 687902208
I0725 19:03:27.371987 20919 layer_factory.hpp:77] Creating layer inception_3a/3x3_reduce
I0725 19:03:27.371999 20919 net.cpp:84] Creating Layer inception_3a/3x3_reduce
I0725 19:03:27.372002 20919 net.cpp:406] inception_3a/3x3_reduce <- pool2/3x3_s2_pool2/3x3_s2_0_split_1
I0725 19:03:27.372010 20919 net.cpp:380] inception_3a/3x3_reduce -> inception_3a/3x3_reduce
I0725 19:03:27.374127 20919 net.cpp:122] Setting up inception_3a/3x3_reduce
I0725 19:03:27.374153 20919 net.cpp:129] Top shape: 32 96 28 28 (2408448)
I0725 19:03:27.374157 20919 net.cpp:137] Memory required for data: 697536000
I0725 19:03:27.374166 20919 layer_factory.hpp:77] Creating layer inception_3a/relu_3x3_reduce
I0725 19:03:27.374173 20919 net.cpp:84] Creating Layer inception_3a/relu_3x3_reduce
I0725 19:03:27.374176 20919 net.cpp:406] inception_3a/relu_3x3_reduce <- inception_3a/3x3_reduce
I0725 19:03:27.374183 20919 net.cpp:367] inception_3a/relu_3x3_reduce -> inception_3a/3x3_reduce (in-place)
I0725 19:03:27.374591 20919 net.cpp:122] Setting up inception_3a/relu_3x3_reduce
I0725 19:03:27.374614 20919 net.cpp:129] Top shape: 32 96 28 28 (2408448)
I0725 19:03:27.374617 20919 net.cpp:137] Memory required for data: 707169792
I0725 19:03:27.374622 20919 layer_factory.hpp:77] Creating layer inception_3a/3x3
I0725 19:03:27.374637 20919 net.cpp:84] Creating Layer inception_3a/3x3
I0725 19:03:27.374641 20919 net.cpp:406] inception_3a/3x3 <- inception_3a/3x3_reduce
I0725 19:03:27.374647 20919 net.cpp:380] inception_3a/3x3 -> inception_3a/3x3
I0725 19:03:27.376116 20919 net.cpp:122] Setting up inception_3a/3x3
I0725 19:03:27.376132 20919 net.cpp:129] Top shape: 32 128 28 28 (3211264)
I0725 19:03:27.376137 20919 net.cpp:137] Memory required for data: 720014848
I0725 19:03:27.376142 20919 layer_factory.hpp:77] Creating layer inception_3a/relu_3x3
I0725 19:03:27.376147 20919 net.cpp:84] Creating Layer inception_3a/relu_3x3
I0725 19:03:27.376150 20919 net.cpp:406] inception_3a/relu_3x3 <- inception_3a/3x3
I0725 19:03:27.376157 20919 net.cpp:367] inception_3a/relu_3x3 -> inception_3a/3x3 (in-place)
I0725 19:03:27.376564 20919 net.cpp:122] Setting up inception_3a/relu_3x3
I0725 19:03:27.376575 20919 net.cpp:129] Top shape: 32 128 28 28 (3211264)
I0725 19:03:27.376579 20919 net.cpp:137] Memory required for data: 732859904
I0725 19:03:27.376581 20919 layer_factory.hpp:77] Creating layer inception_3a/5x5_reduce
I0725 19:03:27.376595 20919 net.cpp:84] Creating Layer inception_3a/5x5_reduce
I0725 19:03:27.376597 20919 net.cpp:406] inception_3a/5x5_reduce <- pool2/3x3_s2_pool2/3x3_s2_0_split_2
I0725 19:03:27.376603 20919 net.cpp:380] inception_3a/5x5_reduce -> inception_3a/5x5_reduce
I0725 19:03:27.377815 20919 net.cpp:122] Setting up inception_3a/5x5_reduce
I0725 19:03:27.377826 20919 net.cpp:129] Top shape: 32 16 28 28 (401408)
I0725 19:03:27.377840 20919 net.cpp:137] Memory required for data: 734465536
I0725 19:03:27.377846 20919 layer_factory.hpp:77] Creating layer inception_3a/relu_5x5_reduce
I0725 19:03:27.377856 20919 net.cpp:84] Creating Layer inception_3a/relu_5x5_reduce
I0725 19:03:27.377861 20919 net.cpp:406] inception_3a/relu_5x5_reduce <- inception_3a/5x5_reduce
I0725 19:03:27.377864 20919 net.cpp:367] inception_3a/relu_5x5_reduce -> inception_3a/5x5_reduce (in-place)
I0725 19:03:27.378059 20919 net.cpp:122] Setting up inception_3a/relu_5x5_reduce
I0725 19:03:27.378072 20919 net.cpp:129] Top shape: 32 16 28 28 (401408)
I0725 19:03:27.378075 20919 net.cpp:137] Memory required for data: 736071168
I0725 19:03:27.378078 20919 layer_factory.hpp:77] Creating layer inception_3a/5x5
I0725 19:03:27.378089 20919 net.cpp:84] Creating Layer inception_3a/5x5
I0725 19:03:27.378093 20919 net.cpp:406] inception_3a/5x5 <- inception_3a/5x5_reduce
I0725 19:03:27.378098 20919 net.cpp:380] inception_3a/5x5 -> inception_3a/5x5
I0725 19:03:27.379561 20919 net.cpp:122] Setting up inception_3a/5x5
I0725 19:03:27.379573 20919 net.cpp:129] Top shape: 32 32 28 28 (802816)
I0725 19:03:27.379578 20919 net.cpp:137] Memory required for data: 739282432
I0725 19:03:27.379585 20919 layer_factory.hpp:77] Creating layer inception_3a/relu_5x5
I0725 19:03:27.379590 20919 net.cpp:84] Creating Layer inception_3a/relu_5x5
I0725 19:03:27.379592 20919 net.cpp:406] inception_3a/relu_5x5 <- inception_3a/5x5
I0725 19:03:27.379596 20919 net.cpp:367] inception_3a/relu_5x5 -> inception_3a/5x5 (in-place)
I0725 19:03:27.380017 20919 net.cpp:122] Setting up inception_3a/relu_5x5
I0725 19:03:27.380028 20919 net.cpp:129] Top shape: 32 32 28 28 (802816)
I0725 19:03:27.380031 20919 net.cpp:137] Memory required for data: 742493696
I0725 19:03:27.380034 20919 layer_factory.hpp:77] Creating layer inception_3a/pool
I0725 19:03:27.380043 20919 net.cpp:84] Creating Layer inception_3a/pool
I0725 19:03:27.380048 20919 net.cpp:406] inception_3a/pool <- pool2/3x3_s2_pool2/3x3_s2_0_split_3
I0725 19:03:27.380051 20919 net.cpp:380] inception_3a/pool -> inception_3a/pool
I0725 19:03:27.380271 20919 net.cpp:122] Setting up inception_3a/pool
I0725 19:03:27.380282 20919 net.cpp:129] Top shape: 32 192 28 28 (4816896)
I0725 19:03:27.380285 20919 net.cpp:137] Memory required for data: 761761280
I0725 19:03:27.380288 20919 layer_factory.hpp:77] Creating layer inception_3a/pool_proj
I0725 19:03:27.380300 20919 net.cpp:84] Creating Layer inception_3a/pool_proj
I0725 19:03:27.380304 20919 net.cpp:406] inception_3a/pool_proj <- inception_3a/pool
I0725 19:03:27.380313 20919 net.cpp:380] inception_3a/pool_proj -> inception_3a/pool_proj
I0725 19:03:27.381584 20919 net.cpp:122] Setting up inception_3a/pool_proj
I0725 19:03:27.381597 20919 net.cpp:129] Top shape: 32 32 28 28 (802816)
I0725 19:03:27.381599 20919 net.cpp:137] Memory required for data: 764972544
I0725 19:03:27.381609 20919 layer_factory.hpp:77] Creating layer inception_3a/relu_pool_proj
I0725 19:03:27.381618 20919 net.cpp:84] Creating Layer inception_3a/relu_pool_proj
I0725 19:03:27.381623 20919 net.cpp:406] inception_3a/relu_pool_proj <- inception_3a/pool_proj
I0725 19:03:27.381628 20919 net.cpp:367] inception_3a/relu_pool_proj -> inception_3a/pool_proj (in-place)
I0725 19:03:27.382052 20919 net.cpp:122] Setting up inception_3a/relu_pool_proj
I0725 19:03:27.382064 20919 net.cpp:129] Top shape: 32 32 28 28 (802816)
I0725 19:03:27.382067 20919 net.cpp:137] Memory required for data: 768183808
I0725 19:03:27.382071 20919 layer_factory.hpp:77] Creating layer inception_3a/output
I0725 19:03:27.382086 20919 net.cpp:84] Creating Layer inception_3a/output
I0725 19:03:27.382091 20919 net.cpp:406] inception_3a/output <- inception_3a/1x1
I0725 19:03:27.382094 20919 net.cpp:406] inception_3a/output <- inception_3a/3x3
I0725 19:03:27.382098 20919 net.cpp:406] inception_3a/output <- inception_3a/5x5
I0725 19:03:27.382102 20919 net.cpp:406] inception_3a/output <- inception_3a/pool_proj
I0725 19:03:27.382118 20919 net.cpp:380] inception_3a/output -> inception_3a/output
I0725 19:03:27.382160 20919 net.cpp:122] Setting up inception_3a/output
I0725 19:03:27.382169 20919 net.cpp:129] Top shape: 32 256 28 28 (6422528)
I0725 19:03:27.382171 20919 net.cpp:137] Memory required for data: 793873920
I0725 19:03:27.382174 20919 layer_factory.hpp:77] Creating layer inception_3a/output_inception_3a/output_0_split
I0725 19:03:27.382181 20919 net.cpp:84] Creating Layer inception_3a/output_inception_3a/output_0_split
I0725 19:03:27.382184 20919 net.cpp:406] inception_3a/output_inception_3a/output_0_split <- inception_3a/output
I0725 19:03:27.382191 20919 net.cpp:380] inception_3a/output_inception_3a/output_0_split -> inception_3a/output_inception_3a/output_0_split_0
I0725 19:03:27.382199 20919 net.cpp:380] inception_3a/output_inception_3a/output_0_split -> inception_3a/output_inception_3a/output_0_split_1
I0725 19:03:27.382203 20919 net.cpp:380] inception_3a/output_inception_3a/output_0_split -> inception_3a/output_inception_3a/output_0_split_2
I0725 19:03:27.382210 20919 net.cpp:380] inception_3a/output_inception_3a/output_0_split -> inception_3a/output_inception_3a/output_0_split_3
I0725 19:03:27.382216 20919 net.cpp:380] inception_3a/output_inception_3a/output_0_split -> inception_3a/output_inception_3a/output_0_split_4
I0725 19:03:27.382284 20919 net.cpp:122] Setting up inception_3a/output_inception_3a/output_0_split
I0725 19:03:27.382293 20919 net.cpp:129] Top shape: 32 256 28 28 (6422528)
I0725 19:03:27.382297 20919 net.cpp:129] Top shape: 32 256 28 28 (6422528)
I0725 19:03:27.382302 20919 net.cpp:129] Top shape: 32 256 28 28 (6422528)
I0725 19:03:27.382305 20919 net.cpp:129] Top shape: 32 256 28 28 (6422528)
I0725 19:03:27.382308 20919 net.cpp:129] Top shape: 32 256 28 28 (6422528)
I0725 19:03:27.382311 20919 net.cpp:137] Memory required for data: 922324480
I0725 19:03:27.382314 20919 layer_factory.hpp:77] Creating layer temp1
I0725 19:03:27.382324 20919 net.cpp:84] Creating Layer temp1
I0725 19:03:27.382328 20919 net.cpp:406] temp1 <- inception_3a/output_inception_3a/output_0_split_0
I0725 19:03:27.382334 20919 net.cpp:380] temp1 -> temp1
I0725 19:03:27.758877 20919 net.cpp:122] Setting up temp1
I0725 19:03:27.758924 20919 net.cpp:129] Top shape: 32 256 (8192)
I0725 19:03:27.758927 20919 net.cpp:137] Memory required for data: 922357248
I0725 19:03:27.758958 20919 layer_factory.hpp:77] Creating layer temp1_relu
I0725 19:03:27.758985 20919 net.cpp:84] Creating Layer temp1_relu
I0725 19:03:27.759011 20919 net.cpp:406] temp1_relu <- temp1
I0725 19:03:27.759029 20919 net.cpp:367] temp1_relu -> temp1 (in-place)
I0725 19:03:27.759865 20919 net.cpp:122] Setting up temp1_relu
I0725 19:03:27.759876 20919 net.cpp:129] Top shape: 32 256 (8192)
I0725 19:03:27.759878 20919 net.cpp:137] Memory required for data: 922390016
I0725 19:03:27.759882 20919 layer_factory.hpp:77] Creating layer temp1_drop
I0725 19:03:27.759891 20919 net.cpp:84] Creating Layer temp1_drop
I0725 19:03:27.759893 20919 net.cpp:406] temp1_drop <- temp1
I0725 19:03:27.759899 20919 net.cpp:367] temp1_drop -> temp1 (in-place)
I0725 19:03:27.759984 20919 net.cpp:122] Setting up temp1_drop
I0725 19:03:27.759994 20919 net.cpp:129] Top shape: 32 256 (8192)
I0725 19:03:27.759997 20919 net.cpp:137] Memory required for data: 922422784
I0725 19:03:27.760000 20919 layer_factory.hpp:77] Creating layer inception_3b/1x1
I0725 19:03:27.760015 20919 net.cpp:84] Creating Layer inception_3b/1x1
I0725 19:03:27.760018 20919 net.cpp:406] inception_3b/1x1 <- inception_3a/output_inception_3a/output_0_split_1
I0725 19:03:27.760030 20919 net.cpp:380] inception_3b/1x1 -> inception_3b/1x1
I0725 19:03:27.761643 20919 net.cpp:122] Setting up inception_3b/1x1
I0725 19:03:27.761656 20919 net.cpp:129] Top shape: 32 128 28 28 (3211264)
I0725 19:03:27.761672 20919 net.cpp:137] Memory required for data: 935267840
I0725 19:03:27.761677 20919 layer_factory.hpp:77] Creating layer inception_3b/relu_1x1
I0725 19:03:27.761683 20919 net.cpp:84] Creating Layer inception_3b/relu_1x1
I0725 19:03:27.761687 20919 net.cpp:406] inception_3b/relu_1x1 <- inception_3b/1x1
I0725 19:03:27.761710 20919 net.cpp:367] inception_3b/relu_1x1 -> inception_3b/1x1 (in-place)
I0725 19:03:27.761883 20919 net.cpp:122] Setting up inception_3b/relu_1x1
I0725 19:03:27.761894 20919 net.cpp:129] Top shape: 32 128 28 28 (3211264)
I0725 19:03:27.761898 20919 net.cpp:137] Memory required for data: 948112896
I0725 19:03:27.761901 20919 layer_factory.hpp:77] Creating layer inception_3b/3x3_reduce
I0725 19:03:27.761963 20919 net.cpp:84] Creating Layer inception_3b/3x3_reduce
I0725 19:03:27.761971 20919 net.cpp:406] inception_3b/3x3_reduce <- inception_3a/output_inception_3a/output_0_split_2
I0725 19:03:27.761978 20919 net.cpp:380] inception_3b/3x3_reduce -> inception_3b/3x3_reduce
I0725 19:03:27.763310 20919 net.cpp:122] Setting up inception_3b/3x3_reduce
I0725 19:03:27.763324 20919 net.cpp:129] Top shape: 32 128 28 28 (3211264)
I0725 19:03:27.763326 20919 net.cpp:137] Memory required for data: 960957952
I0725 19:03:27.763331 20919 layer_factory.hpp:77] Creating layer inception_3b/relu_3x3_reduce
I0725 19:03:27.763337 20919 net.cpp:84] Creating Layer inception_3b/relu_3x3_reduce
I0725 19:03:27.763340 20919 net.cpp:406] inception_3b/relu_3x3_reduce <- inception_3b/3x3_reduce
I0725 19:03:27.763346 20919 net.cpp:367] inception_3b/relu_3x3_reduce -> inception_3b/3x3_reduce (in-place)
I0725 19:03:27.763757 20919 net.cpp:122] Setting up inception_3b/relu_3x3_reduce
I0725 19:03:27.763769 20919 net.cpp:129] Top shape: 32 128 28 28 (3211264)
I0725 19:03:27.763772 20919 net.cpp:137] Memory required for data: 973803008
I0725 19:03:27.763775 20919 layer_factory.hpp:77] Creating layer inception_3b/3x3
I0725 19:03:27.763784 20919 net.cpp:84] Creating Layer inception_3b/3x3
I0725 19:03:27.763788 20919 net.cpp:406] inception_3b/3x3 <- inception_3b/3x3_reduce
I0725 19:03:27.763794 20919 net.cpp:380] inception_3b/3x3 -> inception_3b/3x3
I0725 19:03:27.766687 20919 net.cpp:122] Setting up inception_3b/3x3
I0725 19:03:27.766701 20919 net.cpp:129] Top shape: 32 192 28 28 (4816896)
I0725 19:03:27.766705 20919 net.cpp:137] Memory required for data: 993070592
I0725 19:03:27.766711 20919 layer_factory.hpp:77] Creating layer inception_3b/relu_3x3
I0725 19:03:27.766719 20919 net.cpp:84] Creating Layer inception_3b/relu_3x3
I0725 19:03:27.766723 20919 net.cpp:406] inception_3b/relu_3x3 <- inception_3b/3x3
I0725 19:03:27.766727 20919 net.cpp:367] inception_3b/relu_3x3 -> inception_3b/3x3 (in-place)
I0725 19:03:27.766904 20919 net.cpp:122] Setting up inception_3b/relu_3x3
I0725 19:03:27.766916 20919 net.cpp:129] Top shape: 32 192 28 28 (4816896)
I0725 19:03:27.766919 20919 net.cpp:137] Memory required for data: 1012338176
I0725 19:03:27.766922 20919 layer_factory.hpp:77] Creating layer inception_3b/5x5_reduce
I0725 19:03:27.766932 20919 net.cpp:84] Creating Layer inception_3b/5x5_reduce
I0725 19:03:27.766935 20919 net.cpp:406] inception_3b/5x5_reduce <- inception_3a/output_inception_3a/output_0_split_3
I0725 19:03:27.766942 20919 net.cpp:380] inception_3b/5x5_reduce -> inception_3b/5x5_reduce
I0725 19:03:27.768190 20919 net.cpp:122] Setting up inception_3b/5x5_reduce
I0725 19:03:27.768208 20919 net.cpp:129] Top shape: 32 32 28 28 (802816)
I0725 19:03:27.768210 20919 net.cpp:137] Memory required for data: 1015549440
I0725 19:03:27.768216 20919 layer_factory.hpp:77] Creating layer inception_3b/relu_5x5_reduce
I0725 19:03:27.768221 20919 net.cpp:84] Creating Layer inception_3b/relu_5x5_reduce
I0725 19:03:27.768224 20919 net.cpp:406] inception_3b/relu_5x5_reduce <- inception_3b/5x5_reduce
I0725 19:03:27.768231 20919 net.cpp:367] inception_3b/relu_5x5_reduce -> inception_3b/5x5_reduce (in-place)
I0725 19:03:27.768414 20919 net.cpp:122] Setting up inception_3b/relu_5x5_reduce
I0725 19:03:27.768426 20919 net.cpp:129] Top shape: 32 32 28 28 (802816)
I0725 19:03:27.768429 20919 net.cpp:137] Memory required for data: 1018760704
I0725 19:03:27.768434 20919 layer_factory.hpp:77] Creating layer inception_3b/5x5
I0725 19:03:27.768445 20919 net.cpp:84] Creating Layer inception_3b/5x5
I0725 19:03:27.768447 20919 net.cpp:406] inception_3b/5x5 <- inception_3b/5x5_reduce
I0725 19:03:27.768468 20919 net.cpp:380] inception_3b/5x5 -> inception_3b/5x5
I0725 19:03:27.770742 20919 net.cpp:122] Setting up inception_3b/5x5
I0725 19:03:27.770756 20919 net.cpp:129] Top shape: 32 96 28 28 (2408448)
I0725 19:03:27.770771 20919 net.cpp:137] Memory required for data: 1028394496
I0725 19:03:27.770776 20919 layer_factory.hpp:77] Creating layer inception_3b/relu_5x5
I0725 19:03:27.770786 20919 net.cpp:84] Creating Layer inception_3b/relu_5x5
I0725 19:03:27.770789 20919 net.cpp:406] inception_3b/relu_5x5 <- inception_3b/5x5
I0725 19:03:27.770794 20919 net.cpp:367] inception_3b/relu_5x5 -> inception_3b/5x5 (in-place)
I0725 19:03:27.771203 20919 net.cpp:122] Setting up inception_3b/relu_5x5
I0725 19:03:27.771214 20919 net.cpp:129] Top shape: 32 96 28 28 (2408448)
I0725 19:03:27.771217 20919 net.cpp:137] Memory required for data: 1038028288
I0725 19:03:27.771220 20919 layer_factory.hpp:77] Creating layer inception_3b/pool
I0725 19:03:27.771227 20919 net.cpp:84] Creating Layer inception_3b/pool
I0725 19:03:27.771231 20919 net.cpp:406] inception_3b/pool <- inception_3a/output_inception_3a/output_0_split_4
I0725 19:03:27.771239 20919 net.cpp:380] inception_3b/pool -> inception_3b/pool
I0725 19:03:27.771463 20919 net.cpp:122] Setting up inception_3b/pool
I0725 19:03:27.771474 20919 net.cpp:129] Top shape: 32 256 28 28 (6422528)
I0725 19:03:27.771477 20919 net.cpp:137] Memory required for data: 1063718400
I0725 19:03:27.771481 20919 layer_factory.hpp:77] Creating layer inception_3b/pool_proj
I0725 19:03:27.771492 20919 net.cpp:84] Creating Layer inception_3b/pool_proj
I0725 19:03:27.771497 20919 net.cpp:406] inception_3b/pool_proj <- inception_3b/pool
I0725 19:03:27.771504 20919 net.cpp:380] inception_3b/pool_proj -> inception_3b/pool_proj
I0725 19:03:27.772995 20919 net.cpp:122] Setting up inception_3b/pool_proj
I0725 19:03:27.773007 20919 net.cpp:129] Top shape: 32 64 28 28 (1605632)
I0725 19:03:27.773010 20919 net.cpp:137] Memory required for data: 1070140928
I0725 19:03:27.773015 20919 layer_factory.hpp:77] Creating layer inception_3b/relu_pool_proj
I0725 19:03:27.773021 20919 net.cpp:84] Creating Layer inception_3b/relu_pool_proj
I0725 19:03:27.773025 20919 net.cpp:406] inception_3b/relu_pool_proj <- inception_3b/pool_proj
I0725 19:03:27.773031 20919 net.cpp:367] inception_3b/relu_pool_proj -> inception_3b/pool_proj (in-place)
I0725 19:03:27.773458 20919 net.cpp:122] Setting up inception_3b/relu_pool_proj
I0725 19:03:27.773468 20919 net.cpp:129] Top shape: 32 64 28 28 (1605632)
I0725 19:03:27.773471 20919 net.cpp:137] Memory required for data: 1076563456
I0725 19:03:27.773474 20919 layer_factory.hpp:77] Creating layer inception_3b/output
I0725 19:03:27.773481 20919 net.cpp:84] Creating Layer inception_3b/output
I0725 19:03:27.773484 20919 net.cpp:406] inception_3b/output <- inception_3b/1x1
I0725 19:03:27.773488 20919 net.cpp:406] inception_3b/output <- inception_3b/3x3
I0725 19:03:27.773492 20919 net.cpp:406] inception_3b/output <- inception_3b/5x5
I0725 19:03:27.773496 20919 net.cpp:406] inception_3b/output <- inception_3b/pool_proj
I0725 19:03:27.773502 20919 net.cpp:380] inception_3b/output -> inception_3b/output
I0725 19:03:27.773543 20919 net.cpp:122] Setting up inception_3b/output
I0725 19:03:27.773551 20919 net.cpp:129] Top shape: 32 480 28 28 (12042240)
I0725 19:03:27.773555 20919 net.cpp:137] Memory required for data: 1124732416
I0725 19:03:27.773557 20919 layer_factory.hpp:77] Creating layer inception_3b/output_inception_3b/output_0_split
I0725 19:03:27.773568 20919 net.cpp:84] Creating Layer inception_3b/output_inception_3b/output_0_split
I0725 19:03:27.773571 20919 net.cpp:406] inception_3b/output_inception_3b/output_0_split <- inception_3b/output
I0725 19:03:27.773583 20919 net.cpp:380] inception_3b/output_inception_3b/output_0_split -> inception_3b/output_inception_3b/output_0_split_0
I0725 19:03:27.773589 20919 net.cpp:380] inception_3b/output_inception_3b/output_0_split -> inception_3b/output_inception_3b/output_0_split_1
I0725 19:03:27.773627 20919 net.cpp:122] Setting up inception_3b/output_inception_3b/output_0_split
I0725 19:03:27.773648 20919 net.cpp:129] Top shape: 32 480 28 28 (12042240)
I0725 19:03:27.773653 20919 net.cpp:129] Top shape: 32 480 28 28 (12042240)
I0725 19:03:27.773654 20919 net.cpp:137] Memory required for data: 1221070336
I0725 19:03:27.773658 20919 layer_factory.hpp:77] Creating layer temp2
I0725 19:03:27.773664 20919 net.cpp:84] Creating Layer temp2
I0725 19:03:27.773669 20919 net.cpp:406] temp2 <- inception_3b/output_inception_3b/output_0_split_0
I0725 19:03:27.773675 20919 net.cpp:380] temp2 -> temp2
I0725 19:03:28.472566 20919 net.cpp:122] Setting up temp2
I0725 19:03:28.472609 20919 net.cpp:129] Top shape: 32 256 (8192)
I0725 19:03:28.472611 20919 net.cpp:137] Memory required for data: 1221103104
I0725 19:03:28.472676 20919 layer_factory.hpp:77] Creating layer temp2_relu
I0725 19:03:28.472694 20919 net.cpp:84] Creating Layer temp2_relu
I0725 19:03:28.472712 20919 net.cpp:406] temp2_relu <- temp2
I0725 19:03:28.472728 20919 net.cpp:367] temp2_relu -> temp2 (in-place)
I0725 19:03:28.473403 20919 net.cpp:122] Setting up temp2_relu
I0725 19:03:28.473414 20919 net.cpp:129] Top shape: 32 256 (8192)
I0725 19:03:28.473417 20919 net.cpp:137] Memory required for data: 1221135872
I0725 19:03:28.473420 20919 layer_factory.hpp:77] Creating layer temp2_drop
I0725 19:03:28.473429 20919 net.cpp:84] Creating Layer temp2_drop
I0725 19:03:28.473433 20919 net.cpp:406] temp2_drop <- temp2
I0725 19:03:28.473438 20919 net.cpp:367] temp2_drop -> temp2 (in-place)
I0725 19:03:28.473507 20919 net.cpp:122] Setting up temp2_drop
I0725 19:03:28.473515 20919 net.cpp:129] Top shape: 32 256 (8192)
I0725 19:03:28.473518 20919 net.cpp:137] Memory required for data: 1221168640
I0725 19:03:28.473522 20919 layer_factory.hpp:77] Creating layer pool3/3x3_s2
I0725 19:03:28.473529 20919 net.cpp:84] Creating Layer pool3/3x3_s2
I0725 19:03:28.473534 20919 net.cpp:406] pool3/3x3_s2 <- inception_3b/output_inception_3b/output_0_split_1
I0725 19:03:28.473541 20919 net.cpp:380] pool3/3x3_s2 -> pool3/3x3_s2
I0725 19:03:28.473600 20919 net.cpp:122] Setting up pool3/3x3_s2
I0725 19:03:28.473610 20919 net.cpp:129] Top shape: 32 480 14 14 (3010560)
I0725 19:03:28.473613 20919 net.cpp:137] Memory required for data: 1233210880
I0725 19:03:28.473616 20919 layer_factory.hpp:77] Creating layer pool3/3x3_s2_pool3/3x3_s2_0_split
I0725 19:03:28.473623 20919 net.cpp:84] Creating Layer pool3/3x3_s2_pool3/3x3_s2_0_split
I0725 19:03:28.473626 20919 net.cpp:406] pool3/3x3_s2_pool3/3x3_s2_0_split <- pool3/3x3_s2
I0725 19:03:28.473632 20919 net.cpp:380] pool3/3x3_s2_pool3/3x3_s2_0_split -> pool3/3x3_s2_pool3/3x3_s2_0_split_0
I0725 19:03:28.473639 20919 net.cpp:380] pool3/3x3_s2_pool3/3x3_s2_0_split -> pool3/3x3_s2_pool3/3x3_s2_0_split_1
I0725 19:03:28.473645 20919 net.cpp:380] pool3/3x3_s2_pool3/3x3_s2_0_split -> pool3/3x3_s2_pool3/3x3_s2_0_split_2
I0725 19:03:28.473651 20919 net.cpp:380] pool3/3x3_s2_pool3/3x3_s2_0_split -> pool3/3x3_s2_pool3/3x3_s2_0_split_3
I0725 19:03:28.473711 20919 net.cpp:122] Setting up pool3/3x3_s2_pool3/3x3_s2_0_split
I0725 19:03:28.473718 20919 net.cpp:129] Top shape: 32 480 14 14 (3010560)
I0725 19:03:28.473722 20919 net.cpp:129] Top shape: 32 480 14 14 (3010560)
I0725 19:03:28.473726 20919 net.cpp:129] Top shape: 32 480 14 14 (3010560)
I0725 19:03:28.473729 20919 net.cpp:129] Top shape: 32 480 14 14 (3010560)
I0725 19:03:28.473732 20919 net.cpp:137] Memory required for data: 1281379840
I0725 19:03:28.473736 20919 layer_factory.hpp:77] Creating layer inception_4a/1x1
I0725 19:03:28.473747 20919 net.cpp:84] Creating Layer inception_4a/1x1
I0725 19:03:28.473752 20919 net.cpp:406] inception_4a/1x1 <- pool3/3x3_s2_pool3/3x3_s2_0_split_0
I0725 19:03:28.473760 20919 net.cpp:380] inception_4a/1x1 -> inception_4a/1x1
I0725 19:03:28.475767 20919 net.cpp:122] Setting up inception_4a/1x1
I0725 19:03:28.475792 20919 net.cpp:129] Top shape: 32 192 14 14 (1204224)
I0725 19:03:28.475796 20919 net.cpp:137] Memory required for data: 1286196736
I0725 19:03:28.475805 20919 layer_factory.hpp:77] Creating layer inception_4a/relu_1x1
I0725 19:03:28.475837 20919 net.cpp:84] Creating Layer inception_4a/relu_1x1
I0725 19:03:28.475841 20919 net.cpp:406] inception_4a/relu_1x1 <- inception_4a/1x1
I0725 19:03:28.475848 20919 net.cpp:367] inception_4a/relu_1x1 -> inception_4a/1x1 (in-place)
I0725 19:03:28.476028 20919 net.cpp:122] Setting up inception_4a/relu_1x1
I0725 19:03:28.476038 20919 net.cpp:129] Top shape: 32 192 14 14 (1204224)
I0725 19:03:28.476042 20919 net.cpp:137] Memory required for data: 1291013632
I0725 19:03:28.476044 20919 layer_factory.hpp:77] Creating layer inception_4a/3x3_reduce
I0725 19:03:28.476054 20919 net.cpp:84] Creating Layer inception_4a/3x3_reduce
I0725 19:03:28.476058 20919 net.cpp:406] inception_4a/3x3_reduce <- pool3/3x3_s2_pool3/3x3_s2_0_split_1
I0725 19:03:28.476069 20919 net.cpp:380] inception_4a/3x3_reduce -> inception_4a/3x3_reduce
I0725 19:03:28.477658 20919 net.cpp:122] Setting up inception_4a/3x3_reduce
I0725 19:03:28.477670 20919 net.cpp:129] Top shape: 32 96 14 14 (602112)
I0725 19:03:28.477686 20919 net.cpp:137] Memory required for data: 1293422080
I0725 19:03:28.477692 20919 layer_factory.hpp:77] Creating layer inception_4a/relu_3x3_reduce
I0725 19:03:28.477699 20919 net.cpp:84] Creating Layer inception_4a/relu_3x3_reduce
I0725 19:03:28.477702 20919 net.cpp:406] inception_4a/relu_3x3_reduce <- inception_4a/3x3_reduce
I0725 19:03:28.477707 20919 net.cpp:367] inception_4a/relu_3x3_reduce -> inception_4a/3x3_reduce (in-place)
I0725 19:03:28.478150 20919 net.cpp:122] Setting up inception_4a/relu_3x3_reduce
I0725 19:03:28.478173 20919 net.cpp:129] Top shape: 32 96 14 14 (602112)
I0725 19:03:28.478178 20919 net.cpp:137] Memory required for data: 1295830528
I0725 19:03:28.478181 20919 layer_factory.hpp:77] Creating layer inception_4a/3x3
I0725 19:03:28.478191 20919 net.cpp:84] Creating Layer inception_4a/3x3
I0725 19:03:28.478196 20919 net.cpp:406] inception_4a/3x3 <- inception_4a/3x3_reduce
I0725 19:03:28.478204 20919 net.cpp:380] inception_4a/3x3 -> inception_4a/3x3
I0725 19:03:28.481007 20919 net.cpp:122] Setting up inception_4a/3x3
I0725 19:03:28.481031 20919 net.cpp:129] Top shape: 32 208 14 14 (1304576)
I0725 19:03:28.481035 20919 net.cpp:137] Memory required for data: 1301048832
I0725 19:03:28.481041 20919 layer_factory.hpp:77] Creating layer inception_4a/relu_3x3
I0725 19:03:28.481047 20919 net.cpp:84] Creating Layer inception_4a/relu_3x3
I0725 19:03:28.481051 20919 net.cpp:406] inception_4a/relu_3x3 <- inception_4a/3x3
I0725 19:03:28.481057 20919 net.cpp:367] inception_4a/relu_3x3 -> inception_4a/3x3 (in-place)
I0725 19:03:28.481253 20919 net.cpp:122] Setting up inception_4a/relu_3x3
I0725 19:03:28.481264 20919 net.cpp:129] Top shape: 32 208 14 14 (1304576)
I0725 19:03:28.481267 20919 net.cpp:137] Memory required for data: 1306267136
I0725 19:03:28.481271 20919 layer_factory.hpp:77] Creating layer inception_4a/5x5_reduce
I0725 19:03:28.481281 20919 net.cpp:84] Creating Layer inception_4a/5x5_reduce
I0725 19:03:28.481286 20919 net.cpp:406] inception_4a/5x5_reduce <- pool3/3x3_s2_pool3/3x3_s2_0_split_2
I0725 19:03:28.481294 20919 net.cpp:380] inception_4a/5x5_reduce -> inception_4a/5x5_reduce
I0725 19:03:28.482605 20919 net.cpp:122] Setting up inception_4a/5x5_reduce
I0725 19:03:28.482617 20919 net.cpp:129] Top shape: 32 16 14 14 (100352)
I0725 19:03:28.482620 20919 net.cpp:137] Memory required for data: 1306668544
I0725 19:03:28.482627 20919 layer_factory.hpp:77] Creating layer inception_4a/relu_5x5_reduce
I0725 19:03:28.482633 20919 net.cpp:84] Creating Layer inception_4a/relu_5x5_reduce
I0725 19:03:28.482636 20919 net.cpp:406] inception_4a/relu_5x5_reduce <- inception_4a/5x5_reduce
I0725 19:03:28.482642 20919 net.cpp:367] inception_4a/relu_5x5_reduce -> inception_4a/5x5_reduce (in-place)
I0725 19:03:28.482830 20919 net.cpp:122] Setting up inception_4a/relu_5x5_reduce
I0725 19:03:28.482839 20919 net.cpp:129] Top shape: 32 16 14 14 (100352)
I0725 19:03:28.482842 20919 net.cpp:137] Memory required for data: 1307069952
I0725 19:03:28.482846 20919 layer_factory.hpp:77] Creating layer inception_4a/5x5
I0725 19:03:28.482868 20919 net.cpp:84] Creating Layer inception_4a/5x5
I0725 19:03:28.482872 20919 net.cpp:406] inception_4a/5x5 <- inception_4a/5x5_reduce
I0725 19:03:28.482880 20919 net.cpp:380] inception_4a/5x5 -> inception_4a/5x5
I0725 19:03:28.484196 20919 net.cpp:122] Setting up inception_4a/5x5
I0725 19:03:28.484210 20919 net.cpp:129] Top shape: 32 48 14 14 (301056)
I0725 19:03:28.484211 20919 net.cpp:137] Memory required for data: 1308274176
I0725 19:03:28.484217 20919 layer_factory.hpp:77] Creating layer inception_4a/relu_5x5
I0725 19:03:28.484223 20919 net.cpp:84] Creating Layer inception_4a/relu_5x5
I0725 19:03:28.484226 20919 net.cpp:406] inception_4a/relu_5x5 <- inception_4a/5x5
I0725 19:03:28.484233 20919 net.cpp:367] inception_4a/relu_5x5 -> inception_4a/5x5 (in-place)
I0725 19:03:28.484661 20919 net.cpp:122] Setting up inception_4a/relu_5x5
I0725 19:03:28.484673 20919 net.cpp:129] Top shape: 32 48 14 14 (301056)
I0725 19:03:28.484675 20919 net.cpp:137] Memory required for data: 1309478400
I0725 19:03:28.484680 20919 layer_factory.hpp:77] Creating layer inception_4a/pool
I0725 19:03:28.484685 20919 net.cpp:84] Creating Layer inception_4a/pool
I0725 19:03:28.484689 20919 net.cpp:406] inception_4a/pool <- pool3/3x3_s2_pool3/3x3_s2_0_split_3
I0725 19:03:28.484696 20919 net.cpp:380] inception_4a/pool -> inception_4a/pool
I0725 19:03:28.484903 20919 net.cpp:122] Setting up inception_4a/pool
I0725 19:03:28.484915 20919 net.cpp:129] Top shape: 32 480 14 14 (3010560)
I0725 19:03:28.484917 20919 net.cpp:137] Memory required for data: 1321520640
I0725 19:03:28.484920 20919 layer_factory.hpp:77] Creating layer inception_4a/pool_proj
I0725 19:03:28.484930 20919 net.cpp:84] Creating Layer inception_4a/pool_proj
I0725 19:03:28.484935 20919 net.cpp:406] inception_4a/pool_proj <- inception_4a/pool
I0725 19:03:28.484942 20919 net.cpp:380] inception_4a/pool_proj -> inception_4a/pool_proj
I0725 19:03:28.486344 20919 net.cpp:122] Setting up inception_4a/pool_proj
I0725 19:03:28.486356 20919 net.cpp:129] Top shape: 32 64 14 14 (401408)
I0725 19:03:28.486359 20919 net.cpp:137] Memory required for data: 1323126272
I0725 19:03:28.486366 20919 layer_factory.hpp:77] Creating layer inception_4a/relu_pool_proj
I0725 19:03:28.486373 20919 net.cpp:84] Creating Layer inception_4a/relu_pool_proj
I0725 19:03:28.486377 20919 net.cpp:406] inception_4a/relu_pool_proj <- inception_4a/pool_proj
I0725 19:03:28.486382 20919 net.cpp:367] inception_4a/relu_pool_proj -> inception_4a/pool_proj (in-place)
I0725 19:03:28.486940 20919 net.cpp:122] Setting up inception_4a/relu_pool_proj
I0725 19:03:28.486953 20919 net.cpp:129] Top shape: 32 64 14 14 (401408)
I0725 19:03:28.486955 20919 net.cpp:137] Memory required for data: 1324731904
I0725 19:03:28.486958 20919 layer_factory.hpp:77] Creating layer inception_4a/output
I0725 19:03:28.486968 20919 net.cpp:84] Creating Layer inception_4a/output
I0725 19:03:28.486971 20919 net.cpp:406] inception_4a/output <- inception_4a/1x1
I0725 19:03:28.486975 20919 net.cpp:406] inception_4a/output <- inception_4a/3x3
I0725 19:03:28.486979 20919 net.cpp:406] inception_4a/output <- inception_4a/5x5
I0725 19:03:28.486984 20919 net.cpp:406] inception_4a/output <- inception_4a/pool_proj
I0725 19:03:28.486987 20919 net.cpp:380] inception_4a/output -> inception_4a/output
I0725 19:03:28.487033 20919 net.cpp:122] Setting up inception_4a/output
I0725 19:03:28.487041 20919 net.cpp:129] Top shape: 32 512 14 14 (3211264)
I0725 19:03:28.487043 20919 net.cpp:137] Memory required for data: 1337576960
I0725 19:03:28.487048 20919 layer_factory.hpp:77] Creating layer loss1/ave_pool
I0725 19:03:28.487104 20919 net.cpp:84] Creating Layer loss1/ave_pool
I0725 19:03:28.487110 20919 net.cpp:406] loss1/ave_pool <- inception_4a/output
I0725 19:03:28.487115 20919 net.cpp:380] loss1/ave_pool -> loss1/ave_pool
I0725 19:03:28.487305 20919 net.cpp:122] Setting up loss1/ave_pool
I0725 19:03:28.487315 20919 net.cpp:129] Top shape: 32 512 4 4 (262144)
I0725 19:03:28.487318 20919 net.cpp:137] Memory required for data: 1338625536
I0725 19:03:28.487323 20919 layer_factory.hpp:77] Creating layer loss1/conv
I0725 19:03:28.487345 20919 net.cpp:84] Creating Layer loss1/conv
I0725 19:03:28.487352 20919 net.cpp:406] loss1/conv <- loss1/ave_pool
I0725 19:03:28.487359 20919 net.cpp:380] loss1/conv -> loss1/conv
I0725 19:03:28.488930 20919 net.cpp:122] Setting up loss1/conv
I0725 19:03:28.488956 20919 net.cpp:129] Top shape: 32 128 4 4 (65536)
I0725 19:03:28.488960 20919 net.cpp:137] Memory required for data: 1338887680
I0725 19:03:28.488966 20919 layer_factory.hpp:77] Creating layer loss1/relu_conv
I0725 19:03:28.488972 20919 net.cpp:84] Creating Layer loss1/relu_conv
I0725 19:03:28.488976 20919 net.cpp:406] loss1/relu_conv <- loss1/conv
I0725 19:03:28.488981 20919 net.cpp:367] loss1/relu_conv -> loss1/conv (in-place)
I0725 19:03:28.489886 20919 net.cpp:122] Setting up loss1/relu_conv
I0725 19:03:28.489928 20919 net.cpp:129] Top shape: 32 128 4 4 (65536)
I0725 19:03:28.489936 20919 net.cpp:137] Memory required for data: 1339149824
I0725 19:03:28.489967 20919 layer_factory.hpp:77] Creating layer temp3
I0725 19:03:28.490001 20919 net.cpp:84] Creating Layer temp3
I0725 19:03:28.490011 20919 net.cpp:406] temp3 <- loss1/conv
I0725 19:03:28.490025 20919 net.cpp:380] temp3 -> temp3
I0725 19:03:28.505875 20919 net.cpp:122] Setting up temp3
I0725 19:03:28.505903 20919 net.cpp:129] Top shape: 32 512 (16384)
I0725 19:03:28.505909 20919 net.cpp:137] Memory required for data: 1339215360
I0725 19:03:28.505923 20919 layer_factory.hpp:77] Creating layer temp3_relu
I0725 19:03:28.505935 20919 net.cpp:84] Creating Layer temp3_relu
I0725 19:03:28.505942 20919 net.cpp:406] temp3_relu <- temp3
I0725 19:03:28.505972 20919 net.cpp:367] temp3_relu -> temp3 (in-place)
I0725 19:03:28.506389 20919 net.cpp:122] Setting up temp3_relu
I0725 19:03:28.506408 20919 net.cpp:129] Top shape: 32 512 (16384)
I0725 19:03:28.506414 20919 net.cpp:137] Memory required for data: 1339280896
I0725 19:03:28.506422 20919 layer_factory.hpp:77] Creating layer temp3_drop
I0725 19:03:28.506433 20919 net.cpp:84] Creating Layer temp3_drop
I0725 19:03:28.506439 20919 net.cpp:406] temp3_drop <- temp3
I0725 19:03:28.506453 20919 net.cpp:367] temp3_drop -> temp3 (in-place)
I0725 19:03:28.506517 20919 net.cpp:122] Setting up temp3_drop
I0725 19:03:28.506531 20919 net.cpp:129] Top shape: 32 512 (16384)
I0725 19:03:28.506536 20919 net.cpp:137] Memory required for data: 1339346432
I0725 19:03:28.506541 20919 layer_factory.hpp:77] Creating layer temp
I0725 19:03:28.506553 20919 net.cpp:84] Creating Layer temp
I0725 19:03:28.506561 20919 net.cpp:406] temp <- temp1
I0725 19:03:28.506567 20919 net.cpp:406] temp <- temp2
I0725 19:03:28.506574 20919 net.cpp:406] temp <- temp3
I0725 19:03:28.506582 20919 net.cpp:380] temp -> temp
I0725 19:03:28.506634 20919 net.cpp:122] Setting up temp
I0725 19:03:28.506646 20919 net.cpp:129] Top shape: 32 1024 (32768)
I0725 19:03:28.506651 20919 net.cpp:137] Memory required for data: 1339477504
I0725 19:03:28.506659 20919 layer_factory.hpp:77] Creating layer temp_cjy
I0725 19:03:28.506672 20919 net.cpp:84] Creating Layer temp_cjy
I0725 19:03:28.506681 20919 net.cpp:406] temp_cjy <- temp
I0725 19:03:28.506691 20919 net.cpp:380] temp_cjy -> temp_cjy
I0725 19:03:28.521001 20919 net.cpp:122] Setting up temp_cjy
I0725 19:03:28.521028 20919 net.cpp:129] Top shape: 32 1024 (32768)
I0725 19:03:28.521034 20919 net.cpp:137] Memory required for data: 1339608576
I0725 19:03:28.521045 20919 layer_factory.hpp:77] Creating layer temp_cjy_relu
I0725 19:03:28.521056 20919 net.cpp:84] Creating Layer temp_cjy_relu
I0725 19:03:28.521062 20919 net.cpp:406] temp_cjy_relu <- temp_cjy
I0725 19:03:28.521071 20919 net.cpp:367] temp_cjy_relu -> temp_cjy (in-place)
I0725 19:03:28.521761 20919 net.cpp:122] Setting up temp_cjy_relu
I0725 19:03:28.521783 20919 net.cpp:129] Top shape: 32 1024 (32768)
I0725 19:03:28.521788 20919 net.cpp:137] Memory required for data: 1339739648
I0725 19:03:28.521795 20919 layer_factory.hpp:77] Creating layer temp3_cjy_drop
I0725 19:03:28.521812 20919 net.cpp:84] Creating Layer temp3_cjy_drop
I0725 19:03:28.521819 20919 net.cpp:406] temp3_cjy_drop <- temp_cjy
I0725 19:03:28.521852 20919 net.cpp:367] temp3_cjy_drop -> temp_cjy (in-place)
I0725 19:03:28.521912 20919 net.cpp:122] Setting up temp3_cjy_drop
I0725 19:03:28.521924 20919 net.cpp:129] Top shape: 32 1024 (32768)
I0725 19:03:28.521929 20919 net.cpp:137] Memory required for data: 1339870720
I0725 19:03:28.521935 20919 layer_factory.hpp:77] Creating layer loss1/classifier_cjy
I0725 19:03:28.521958 20919 net.cpp:84] Creating Layer loss1/classifier_cjy
I0725 19:03:28.521965 20919 net.cpp:406] loss1/classifier_cjy <- temp_cjy
I0725 19:03:28.521980 20919 net.cpp:380] loss1/classifier_cjy -> loss1/classifier_cjy
I0725 19:03:28.522189 20919 net.cpp:122] Setting up loss1/classifier_cjy
I0725 19:03:28.522202 20919 net.cpp:129] Top shape: 32 1 (32)
I0725 19:03:28.522207 20919 net.cpp:137] Memory required for data: 1339870848
I0725 19:03:28.522218 20919 layer_factory.hpp:77] Creating layer sigmoid5
I0725 19:03:28.522228 20919 net.cpp:84] Creating Layer sigmoid5
I0725 19:03:28.522234 20919 net.cpp:406] sigmoid5 <- loss1/classifier_cjy
I0725 19:03:28.522245 20919 net.cpp:380] sigmoid5 -> pred
I0725 19:03:28.522615 20919 net.cpp:122] Setting up sigmoid5
I0725 19:03:28.522632 20919 net.cpp:129] Top shape: 32 1 (32)
I0725 19:03:28.522637 20919 net.cpp:137] Memory required for data: 1339870976
I0725 19:03:28.522644 20919 layer_factory.hpp:77] Creating layer loss
I0725 19:03:28.522653 20919 net.cpp:84] Creating Layer loss
I0725 19:03:28.522660 20919 net.cpp:406] loss <- pred
I0725 19:03:28.522668 20919 net.cpp:406] loss <- labels
I0725 19:03:28.522691 20919 net.cpp:380] loss -> loss
I0725 19:03:28.522779 20919 net.cpp:122] Setting up loss
…
