…
I0726 15:08:38.756697 17214 solver.cpp:102] Creating training net from net file: config/letnet5_regression/train_val.prototxt
I0726 15:08:38.757009 17214 net.cpp:294] The NetState phase (0) differed from the phase (1) specified by a rule in layer data
I0726 15:08:38.757167 17214 net.cpp:51] Initializing net from parameters: 
name: "RegressionExample"
state {
  phase: TRAIN
  level: 0
  stage: ""
}
layer {
  name: "data"
  type: "HDF5Data"
  top: "data"
  top: "labels"
  include {
    phase: TRAIN
  }
  hdf5_data_param {
    source: "dataset/HDF5/train_h5.txt"
    batch_size: 32
  }
}
layer {
  name: "conv1"
  type: "Convolution"
  bottom: "data"
  top: "conv1"
  param {
    lr_mult: 1
    decay_mult: 1
  }
  param {
    lr_mult: 1
    decay_mult: 0
  }
  convolution_param {
    num_output: 96
    kernel_size: 5
    stride: 2
    weight_filler {
      type: "gaussian"
      std: 0.01
    }
    bias_filler {
      type: "constant"
      value: 0
    }
  }
}
layer {
  name: "relu1"
  type: "ReLU"
  bottom: "conv1"
  top: "conv1"
}
layer {
  name: "pool1"
  type: "Pooling"
  bottom: "conv1"
  top: "pool1"
  pooling_param {
    pool: MAX
    kernel_size: 3
    stride: 2
  }
}
layer {
  name: "conv2"
  type: "Convolution"
  bottom: "pool1"
  top: "conv2"
  param {
    lr_mult: 1
    decay_mult: 1
  }
  param {
    lr_mult: 1
    decay_mult: 0
  }
  convolution_param {
    num_output: 96
    pad: 2
    kernel_size: 3
    weight_filler {
      type: "gaussian"
      std: 0.01
    }
    bias_filler {
      type: "constant"
      value: 0
    }
  }
}
layer {
  name: "relu2"
  type: "ReLU"
  bottom: "conv2"
  top: "conv2"
}
layer {
  name: "pool2"
  type: "Pooling"
  bottom: "conv2"
  top: "pool2"
  pooling_param {
    pool: MAX
    kernel_size: 3
    stride: 2
  }
}
layer {
  name: "conv3"
  type: "Convolution"
  bottom: "pool2"
  top: "conv3"
  param {
    lr_mult: 1
    decay_mult: 1
  }
  param {
    lr_mult: 1
    decay_mult: 0
  }
  convolution_param {
    num_output: 128
    pad: 1
    kernel_size: 3
    weight_filler {
      type: "gaussian"
      std: 0.01
    }
    bias_filler {
      type: "constant"
      value: 0
    }
  }
}
layer {
  name: "relu3"
  type: "ReLU"
  bottom: "conv3"
  top: "conv3"
}
layer {
  name: "pool3"
  type: "Pooling"
  bottom: "conv3"
  top: "pool3"
  pooling_param {
    pool: MAX
    kernel_size: 3
    stride: 2
  }
}
layer {
  name: "fc4"
  type: "InnerProduct"
  bottom: "pool3"
  top: "fc4"
  param {
    lr_mult: 1
    decay_mult: 1
  }
  param {
    lr_mult: 1
    decay_mult: 0
  }
  inner_product_param {
    num_output: 192
    weight_filler {
      type: "gaussian"
      std: 0.005
    }
    bias_filler {
      type: "constant"
      value: 0
    }
  }
}
layer {
  name: "relu4"
  type: "ReLU"
  bottom: "fc4"
  top: "fc4"
}
layer {
  name: "drop4"
  type: "Dropout"
  bottom: "fc4"
  top: "fc4"
  dropout_param {
    dropout_ratio: 0.35
  }
}
layer {
  name: "fc5"
  type: "InnerProduct"
  bottom: "fc4"
  top: "fc5"
  param {
    lr_mult: 1
    decay_mult: 1
  }
  param {
    lr_mult: 1
    decay_mult: 0
  }
  inner_product_param {
    num_output: 2
    weight_filler {
      type: "gaussian"
      std: 0.005
    }
    bias_filler {
      type: "constant"
      value: 0
    }
  }
}
layer {
  name: "sigmoid5"
  type: "Sigmoid"
  bottom: "fc5"
  top: "score"
}
layer {
  name: "loss"
  type: "Python"
  bottom: "score"
  bottom: "labels"
  top: "loss"
  loss_weight: 1
  python_param {
    module: "lossLayer"
    layer: "lossLayer"
  }
}
I0726 15:08:38.757257 17214 layer_factory.hpp:77] Creating layer data
I0726 15:08:38.757300 17214 net.cpp:84] Creating Layer data
I0726 15:08:38.757309 17214 net.cpp:380] data -> data
I0726 15:08:38.757331 17214 net.cpp:380] data -> labels
I0726 15:08:38.757344 17214 hdf5_data_layer.cpp:80] Loading list of HDF5 filenames from: dataset/HDF5/train_h5.txt
I0726 15:08:38.757412 17214 hdf5_data_layer.cpp:94] Number of HDF5 files: 7
I0726 15:08:38.758708 17214 hdf5.cpp:32] Datatype class: H5T_FLOAT
I0726 15:08:42.908406 17214 net.cpp:122] Setting up data
I0726 15:08:42.908464 17214 net.cpp:129] Top shape: 32 3 227 227 (4946784)
I0726 15:08:42.908470 17214 net.cpp:129] Top shape: 32 2 (64)
I0726 15:08:42.908473 17214 net.cpp:137] Memory required for data: 19787392
I0726 15:08:42.908489 17214 layer_factory.hpp:77] Creating layer conv1
I0726 15:08:42.908558 17214 net.cpp:84] Creating Layer conv1
I0726 15:08:42.908571 17214 net.cpp:406] conv1 <- data
I0726 15:08:42.908586 17214 net.cpp:380] conv1 -> conv1
I0726 15:08:43.089601 17214 net.cpp:122] Setting up conv1
I0726 15:08:43.089648 17214 net.cpp:129] Top shape: 32 96 112 112 (38535168)
I0726 15:08:43.089653 17214 net.cpp:137] Memory required for data: 173928064
I0726 15:08:43.089700 17214 layer_factory.hpp:77] Creating layer relu1
I0726 15:08:43.089725 17214 net.cpp:84] Creating Layer relu1
I0726 15:08:43.089731 17214 net.cpp:406] relu1 <- conv1
I0726 15:08:43.089740 17214 net.cpp:367] relu1 -> conv1 (in-place)
I0726 15:08:43.089929 17214 net.cpp:122] Setting up relu1
I0726 15:08:43.089941 17214 net.cpp:129] Top shape: 32 96 112 112 (38535168)
I0726 15:08:43.089953 17214 net.cpp:137] Memory required for data: 328068736
I0726 15:08:43.089957 17214 layer_factory.hpp:77] Creating layer pool1
I0726 15:08:43.089970 17214 net.cpp:84] Creating Layer pool1
I0726 15:08:43.089975 17214 net.cpp:406] pool1 <- conv1
I0726 15:08:43.089980 17214 net.cpp:380] pool1 -> pool1
I0726 15:08:43.090039 17214 net.cpp:122] Setting up pool1
I0726 15:08:43.090046 17214 net.cpp:129] Top shape: 32 96 56 56 (9633792)
I0726 15:08:43.090049 17214 net.cpp:137] Memory required for data: 366603904
I0726 15:08:43.090052 17214 layer_factory.hpp:77] Creating layer conv2
I0726 15:08:43.090067 17214 net.cpp:84] Creating Layer conv2
I0726 15:08:43.090071 17214 net.cpp:406] conv2 <- pool1
I0726 15:08:43.090080 17214 net.cpp:380] conv2 -> conv2
I0726 15:08:43.093807 17214 net.cpp:122] Setting up conv2
I0726 15:08:43.093824 17214 net.cpp:129] Top shape: 32 96 58 58 (10334208)
I0726 15:08:43.093830 17214 net.cpp:137] Memory required for data: 407940736
I0726 15:08:43.093839 17214 layer_factory.hpp:77] Creating layer relu2
I0726 15:08:43.093845 17214 net.cpp:84] Creating Layer relu2
I0726 15:08:43.093849 17214 net.cpp:406] relu2 <- conv2
I0726 15:08:43.093856 17214 net.cpp:367] relu2 -> conv2 (in-place)
I0726 15:08:43.094283 17214 net.cpp:122] Setting up relu2
I0726 15:08:43.094297 17214 net.cpp:129] Top shape: 32 96 58 58 (10334208)
I0726 15:08:43.094301 17214 net.cpp:137] Memory required for data: 449277568
I0726 15:08:43.094306 17214 layer_factory.hpp:77] Creating layer pool2
I0726 15:08:43.094316 17214 net.cpp:84] Creating Layer pool2
I0726 15:08:43.094319 17214 net.cpp:406] pool2 <- conv2
I0726 15:08:43.094326 17214 net.cpp:380] pool2 -> pool2
I0726 15:08:43.094368 17214 net.cpp:122] Setting up pool2
I0726 15:08:43.094375 17214 net.cpp:129] Top shape: 32 96 29 29 (2583552)
I0726 15:08:43.094378 17214 net.cpp:137] Memory required for data: 459611776
I0726 15:08:43.094382 17214 layer_factory.hpp:77] Creating layer conv3
I0726 15:08:43.094391 17214 net.cpp:84] Creating Layer conv3
I0726 15:08:43.094394 17214 net.cpp:406] conv3 <- pool2
I0726 15:08:43.094401 17214 net.cpp:380] conv3 -> conv3
I0726 15:08:43.097204 17214 net.cpp:122] Setting up conv3
I0726 15:08:43.097221 17214 net.cpp:129] Top shape: 32 128 29 29 (3444736)
I0726 15:08:43.097225 17214 net.cpp:137] Memory required for data: 473390720
I0726 15:08:43.097234 17214 layer_factory.hpp:77] Creating layer relu3
I0726 15:08:43.097244 17214 net.cpp:84] Creating Layer relu3
I0726 15:08:43.097249 17214 net.cpp:406] relu3 <- conv3
I0726 15:08:43.097254 17214 net.cpp:367] relu3 -> conv3 (in-place)
I0726 15:08:43.097681 17214 net.cpp:122] Setting up relu3
I0726 15:08:43.097694 17214 net.cpp:129] Top shape: 32 128 29 29 (3444736)
I0726 15:08:43.097697 17214 net.cpp:137] Memory required for data: 487169664
I0726 15:08:43.097702 17214 layer_factory.hpp:77] Creating layer pool3
I0726 15:08:43.097707 17214 net.cpp:84] Creating Layer pool3
I0726 15:08:43.097710 17214 net.cpp:406] pool3 <- conv3
I0726 15:08:43.097718 17214 net.cpp:380] pool3 -> pool3
I0726 15:08:43.097760 17214 net.cpp:122] Setting up pool3
I0726 15:08:43.097767 17214 net.cpp:129] Top shape: 32 128 14 14 (802816)
I0726 15:08:43.097770 17214 net.cpp:137] Memory required for data: 490380928
I0726 15:08:43.097774 17214 layer_factory.hpp:77] Creating layer fc4
I0726 15:08:43.097784 17214 net.cpp:84] Creating Layer fc4
I0726 15:08:43.097786 17214 net.cpp:406] fc4 <- pool3
I0726 15:08:43.097793 17214 net.cpp:380] fc4 -> fc4
I0726 15:08:43.158078 17214 net.cpp:122] Setting up fc4
I0726 15:08:43.158121 17214 net.cpp:129] Top shape: 32 192 (6144)
I0726 15:08:43.158125 17214 net.cpp:137] Memory required for data: 490405504
I0726 15:08:43.158138 17214 layer_factory.hpp:77] Creating layer relu4
I0726 15:08:43.158149 17214 net.cpp:84] Creating Layer relu4
I0726 15:08:43.158154 17214 net.cpp:406] relu4 <- fc4
I0726 15:08:43.158167 17214 net.cpp:367] relu4 -> fc4 (in-place)
I0726 15:08:43.158429 17214 net.cpp:122] Setting up relu4
I0726 15:08:43.158439 17214 net.cpp:129] Top shape: 32 192 (6144)
I0726 15:08:43.158443 17214 net.cpp:137] Memory required for data: 490430080
I0726 15:08:43.158447 17214 layer_factory.hpp:77] Creating layer drop4
I0726 15:08:43.158466 17214 net.cpp:84] Creating Layer drop4
I0726 15:08:43.158471 17214 net.cpp:406] drop4 <- fc4
I0726 15:08:43.158488 17214 net.cpp:367] drop4 -> fc4 (in-place)
I0726 15:08:43.158532 17214 net.cpp:122] Setting up drop4
I0726 15:08:43.158538 17214 net.cpp:129] Top shape: 32 192 (6144)
I0726 15:08:43.158542 17214 net.cpp:137] Memory required for data: 490454656
I0726 15:08:43.158545 17214 layer_factory.hpp:77] Creating layer fc5
I0726 15:08:43.158553 17214 net.cpp:84] Creating Layer fc5
I0726 15:08:43.158556 17214 net.cpp:406] fc5 <- fc4
I0726 15:08:43.158567 17214 net.cpp:380] fc5 -> fc5
I0726 15:08:43.158704 17214 net.cpp:122] Setting up fc5
I0726 15:08:43.158712 17214 net.cpp:129] Top shape: 32 2 (64)
I0726 15:08:43.158715 17214 net.cpp:137] Memory required for data: 490454912
I0726 15:08:43.158730 17214 layer_factory.hpp:77] Creating layer sigmoid5
I0726 15:08:43.158736 17214 net.cpp:84] Creating Layer sigmoid5
I0726 15:08:43.158740 17214 net.cpp:406] sigmoid5 <- fc5
I0726 15:08:43.158746 17214 net.cpp:380] sigmoid5 -> score
I0726 15:08:43.159268 17214 net.cpp:122] Setting up sigmoid5
I0726 15:08:43.159281 17214 net.cpp:129] Top shape: 32 2 (64)
I0726 15:08:43.159296 17214 net.cpp:137] Memory required for data: 490455168
I0726 15:08:43.159298 17214 layer_factory.hpp:77] Creating layer loss
I0726 15:08:43.882831 17214 net.cpp:84] Creating Layer loss
I0726 15:08:43.882901 17214 net.cpp:406] loss <- score
I0726 15:08:43.882921 17214 net.cpp:406] loss <- labels
I0726 15:08:43.882937 17214 net.cpp:380] loss -> loss
I0726 15:08:43.883816 17214 net.cpp:122] Setting up loss
I0726 15:08:43.883839 17214 net.cpp:129] Top shape: 1 (1)
I0726 15:08:43.883843 17214 net.cpp:132]     with loss weight 1
I0726 15:08:43.883872 17214 net.cpp:137] Memory required for data: 490455172
I0726 15:08:43.883886 17214 net.cpp:198] loss needs backward computation.
I0726 15:08:43.883894 17214 net.cpp:198] sigmoid5 needs backward computation.
I0726 15:08:43.883899 17214 net.cpp:198] fc5 needs backward computation.
I0726 15:08:43.883919 17214 net.cpp:198] drop4 needs backward computation.
…
